Model/Derivative/Derivative-model.pth (torch, 114433 bytes, 11 tensors)

MLP.0.weight f4 [200, 4]
0.08758964 -0.085341536 0.44137 0.47336802 -0.0030754558 0.059623923 -5.037014 0.7743873
0.078091025 -0.4531871 -0.25487298 0.13646057 -0.06704074 0.9384371 -1.0748827 -1.5336442
-0.12123271 -0.2339087 0.65918213 0.5953805 -3.7922351 -0.00072474347 0.026736638 0.00057470525
-1.2870413 0.009307234 -0.5029502 0.03676057 0.1421251 -0.066265605 0.75017035 0.2266761
-0.0018812816 0.038731754 -0.08740505 -0.07770895 -0.8624113 -0.056469936 -0.078201 -0.03848922
-0.28469694 0.014655057 -0.6717297 0.020554557 -2.2782102 0.0027362953 0.04820431 -0.016803563
-1.0912699 0.0071253227 0.018811697 -0.10527887 -1.1343498 0.062596574 0.27199513 0.23063102
0.09279039 0.04122071 -3.3422573 0.2563389 -0.028676057 -0.05399231 0.64121896 0.6558615
-3.2875924 -0.0036617597 0.049391206 0.015829528 0.296594 0.029578915 -0.78518313 -0.09878826
-0.01641829 0.93909675 -0.38141087 -1.044329 -1.0695089 -0.020961385 0.29869035 -0.06760919
0.22708975 -0.104479685 0.20211132 0.18928891 -1.4964501 0.00331462 -0.33310357 0.1398452
1.3022307 0.014404711 -0.13687982 -0.13865039 -0.30288303 -0.036068667 0.5840972 0.16523257
0.03378952 -0.1398511 0.2913008 0.2745593 0.31708094 -0.03607895 0.23652163 0.24023257
0.0059274393 -0.6450664 -0.9815624 0.18831305 -0.1744925 0.17830896 0.61812794 0.55864674
-0.022479491 0.32756388 -0.54559976 -0.6111065 0.02075633 0.57447267 -0.27219892 -0.4116564
1.1064371 0.002800331 -0.069569066 -0.019894132 0.39091542 0.056782495 0.36819994 0.2548153
-0.0010223525 -0.019948823 0.01651234 0.45148 0.044472445 0.18477578 -0.14903076 -0.04886458
0.024182208 0.06386378 0.16443145 0.18258153 -0.5864207 -0.10001389 -0.24291965 -0.24076611
-2.6814787 -0.00079462165 0.036648292 -0.0010592376 0.005740075 -0.033921026 1.2776679 1.1992557
0.035304036 -0.14063801 0.4885894 0.52139527 0.099307284 0.1303463 1.3383754 0.0015941287
1.1380619 -0.006342049 0.5537531 -0.03943638 0.17112102 -0.8205372 0.2987435 0.2657005
0.12896293 0.34809488 0.18888211 -0.078075305 0.040202446 0.5924087 -1.0570025 -1.222995
-0.22613925 0.028063318 -0.37264353 -0.5545233 0.16040184 0.3902393 -0.043566674 -0.07891577
0.0019987985 -0.2907529 0.7951768 0.5931385 -0.04318331 0.09971179 0.16061632 0.13045016
-0.022916218 -0.18484356 0.5233706 0.52015305 -0.0879653 0.036880188 0.5493224 0.3274701
0.1665345 -0.063455276 0.31951216 -0.7754666 0.09043036 -0.274602 0.49556786 0.48244154
1.2487762 -0.0074557136 0.5019429 -0.115866855 0.34302557 0.0003008367 0.21316011 0.18683173
-0.022038478 0.34576118 0.25021762 0.357004 0.065761045 0.40364933 -0.41490984 -1.4949839
1.0793878 -0.0024967554 -0.005563962 0.022992188 -0.08623713 0.20668194 -0.58233964 -0.16530596
-0.9249675 0.002308273 0.11486405 -0.17271656 0.38952476 -0.02869275 1.1463428 0.29373345
-0.002765245 -0.052606255 0.764859 0.57054067 -0.38375112 -0.041815992 0.3979002 0.5298546
1.0695449 -0.026895668 0.14303352 0.16619393 -1.0401683 0.079989515 0.13110709 0.121010214
00000000: 3262 b33d 8bc7 aebd 40fb e13e 4b5d f23e
00000010: 968d 49bb 3738 743d 382f a1c0 3f3e 463f
00000020: 30ee 9f3d 2408 e8be b67e 82be 52bc 0b3e
00000030: a84c 89bd 6a3d 703f c295 89bf 744e c4bf
00000040: db48 f8bd c385 6fbe 29c0 283f db6a 183f
00000050: fbb3 72c0 b6fc 3dba cb06 db3c d1a7 163a
00000060: c5bd a4bf 5e7d 183c 58c1 00bf 4092 163d
00000070: 3e89 113e 43b6 87bd 2a0b 403f c81d 683e
00000080: 5695 f6ba 30a5 1e3d 6b01 b3bd df25 9fbd
00000090: fdc6 5cbf 054d 67bd d927 a0bd dfa6 1dbd
000000a0: ccc3 91be c41b 703c 7af6 2bbf 0862 a83c
000000b0: 32ce 11c0 6b53 333b e271 453d a0a7 89bc
000000c0: bbae 8bbf 8a7b e93b fd1a 9a3c 739c d7bd
000000d0: 6032 91bf a232 803d f242 8b3e 8a2a 6c3e
000000e0: e308 be3d 0cd7 283d 8be7 55c0 da3e 833e
000000f0: 0dea eabc 0a27 5dbd ed26 243f 8ae6 273f
00000100: ea67 52c0 22fa 6fbb 6f4e 4a3d edac 813c
00000110: 2bdb 973e 7b4f f23c c301 49bf 8051 cabd
00000120: a67f 86bc a568 703f 4948 c3be 93ac 85bf
00000130: abe5 88bf 36b7 abbc f1ed 983e b076 8abd
00000140: 378a 683e 72f9 d5bd 45f6 4e3e f4d4 413e
00000150: ad8b bfbf 183a 593b 8d8c aabe 9533 0f3e
00000160: 7faf a63f bd01 6c3c 392a 0cbe 5efa 0dbe
00000170: 7c13 9bbe bdbc 13bd 6587 153f ba32 293e
00000180: e166 0a3d 2035 0fbe 6125 953e 0993 8c3e
00000190: 6f58 a23e 85c7 13bd ba32 723e 87ff 753e
000001a0: f73a c23b 1223 25bf ac47 7bbf 23d5 403e
000001b0: 29ae 32be a096 363e a23d 1e3f 7903 0f3f
000001c0: e926 b8bc 74b6 a73e 6dac 0bbf 7a71 1cbf
000001d0: 2e09 aa3c a410 133f a85d 8bbe a1c4 d2be
000001e0: bb9f 8d3f c285 373b 3a7a 8ebd 05f9 a2bc
000001f0: 1126 c83e c394 683d b484 bc3e 2777 823e
00000200: 7500 86ba b76b a3bc e344 873c 6328 e73e
00000210: bd28 363d dd35 3d3e 859b 18be 3a26 48bd
00000220: c419 c63c 03cb 823d b860 283e a7f6 3a3e
00000230: ab1f 16bf 15d4 ccbd eebf 78be 648b 76be
00000240: 599d 2bc0 284e 50ba 851c 163d 1ed6 8aba
00000250: 3d17 bc3b c6f0 0abd 9f8a a33f 3681 993f
00000260: f79a 103d 6903 10be 6428 fa3e 297a 053f
00000270: 9e61 cb3d 8079 053e e34f ab3f 15f2 d03a
00000280: 03ac 913f f7d0 cfbb c3c2 0d3f 0b88 21bd
00000290: 593a 2f3e ba0e 52bf e8f4 983e e509 883e
000002a0: dc0e 043e 7e39 b23e 506a 413e f2e5 9fbd
000002b0: 52ab 243d 19a8 173f dc4b 87bf 1a8b 9cbf
000002c0: 0c91 67be 0be5 e53c 22cb bebe 3df5 0dbf
000002d0: 6140 243e 72cd c73e f872 32bd 979e a1bd
000002e0: 46fe 023b 90dd 94be b590 4b3f edd7 173f
000002f0: fce0 30bd b235 cc3d 9b78 243e ba94 053e
00000300: cbba bbbc a147 3dbe 9efb 053f c028 053f
00000310: 2727 b4bd ae0f 173d 65a0 0c3f 29aa a73e
00000320: 0588 2a3e d7f4 81bd 1997 a33e fb84 46bf
00000330: 8d33 b93d a298 8cbe 12bb fd3e 9402 f73e
00000340: e6d7 9f3f 0f4f f4bb 547f 003f 9a4b edbd
00000350: 0ca1 af3e 9eb9 9d39 a546 5a3e d150 3f3e
00000360: 0a8a b4bc 9c07 b13e 861c 803e 3ac9 b63e
00000370: baad 863d 20ab ce3e 106f d4be a25b bfbf
00000380: 6129 8a3f 9ba0 23bb e551 b6bb 1d5a bc3c
00000390: 189d b0bd 6ea4 533e 3614 15bf f745 29be
000003a0: acca 6cbf 6546 173b d83d eb3d 9cdc 30be
000003b0: ca6f c73e 0f0d ebbc 5cbb 923f 3b64 963e
000003c0: 1d39 35bb a879 57bd cdcd 433f f40e 123f
000003d0: 077b c4be 3f47 2bbd 93b9 cb3e 8da4 073f
000003e0: d9e6 883f 4e54 dcbc 6177 123e be2e 2a3e
000003f0: 3c24 85bf 8bd1 a33d f040 063e 34d4 f73d

MLP.0.bias f4 [200]
-0.53579473 -0.58105004 -0.031117866 0.4171188 -0.5142147 0.1286905 0.89021194 -0.624226
0.052884776 0.985704 0.3387019 0.23249279 0.31048098 0.9683287 -0.23888078 -0.6282814
0.13999481 -0.006359655 -0.035022464 1.1665553 -0.18773 0.9233486 -1.0782142 -0.41226116
-0.26748872 -0.5558334 0.23472507 -0.6141876 0.2704379 -0.11225199 -0.98531735 -0.8592033
-0.38981545 -0.013897051 -0.26548538 0.55144453 0.16580105 -1.0491791 -0.53691274 -1.1462705
-1.0422933 -0.14194325 -0.43837157 0.6666559 0.5787846 -0.28735766 -0.5610022 -0.20691961
-0.40611202 -0.5192075 -0.19917126 -0.4776682 -1.0007107 -0.5187913 -0.5822144 0.40638086
-0.9495915 0.09650756 1.0821414 -0.879997 -0.64848477 -0.29884806 -1.141564 0.9319566
-0.32049504 -1.273846 -0.35392982 0.3646299 -0.7217427 -0.8963987 -0.5261333 -1.1407099
0.07357968 1.0216118 -0.43529055 -0.50120956 0.3098059 0.057249613 -1.1047107 -0.6672415
1.0237684 0.251739 -0.70575774 -0.2591771 0.36031786 -0.23415656 -0.22486283 -0.07466652
-1.1168938 -0.32445872 0.7553687 -0.99110377 -0.18306254 -0.36571017 0.45620772 0.9858436
-0.14921385 0.89636004 0.99510384 -0.39964578 -0.2436028 -0.28578827 -0.7748807 0.7072171
0.7749521 -0.06695827 0.27501273 -0.63589585 -0.53881526 -0.6073824 1.0785282 0.66664433
-0.91226166 -0.05798576 -0.16977955 -0.85357535 0.9962045 -0.58995485 0.912073 -0.41170987
0.8350145 -0.7356132 -0.44452026 -0.6031597 -0.3229655 -0.3291555 -0.5215948 -0.661179
-0.44979337 -0.89997524 1.1136503 0.27423307 -0.06183954 -0.7907604 -0.8674131 -0.8236568
-0.045660716 -0.761742 0.21453325 1.101937 0.8692759 -0.28402907 0.6871497 -0.31705832
0.17419748 -0.83077335 -0.022544287 -0.15649901 0.5984935 0.29082888 0.8938507 -0.3739529
-0.49064296 -0.29726228 -1.0800585 -0.4226872 -0.1616975 0.18045707 -0.14391959 -0.68531525
0.9730157 -0.17229237 -0.106697425 0.6405412 -0.3318905 -0.2842851 -0.09222394 -0.9243045
-0.9949219 -0.4311921 -0.2594489 -0.567794 -0.78140086 -0.4747993 -0.61001045 -0.40342128
-0.20337996 -0.4542069 0.19884439 -0.031763468 0.7975665 -1.0555294 -0.054130826 -0.5968449
-0.5326635 -0.4130625 -0.35914773 -0.3206441 -0.74268496 -0.43393824 -0.52358294 0.5083705
-0.5578234 0.04734638 0.81649876 -0.23569609 0.1809461 -0.3549728 0.61457276 -0.56406444
00000000: d829 09bf b2bf 14bf e5ea febc 9890 d53e
00000010: 93a3 03bf 71c7 033e eee4 633f 46cd 1fbf
00000020: b59d 583d 1957 7c3f 566a ad3e 9712 6e3e
00000030: 5df7 9e3e 64e4 773f 2a9d 74be 0dd7 20bf
00000040: cd5a 0f3e a764 d0bb b773 0fbd af51 953f
00000050: 4b3c 40be 9360 6c3f ec02 8abf e513 d3be
00000060: 48f4 88be 194b 0ebf c55b 703e 663b 1dbf
00000070: d676 8a3e 5fe4 e5bd c23d 7cbf bff4 5bbf
00000080: e495 c7be 75b0 63bc b3ed 87be 782b 0d3f
00000090: c0c7 293e 804b 86bf 1d73 09bf feb8 92bf
000000a0: de69 85bf 9259 11be 3d72 e0be f6a9 2a3f
000000b0: 3a2b 143f 8b20 93be d79d 0fbf bce2 53be
000000c0: eaed cfbe c8ea 04bf 8df3 4bbe ed90 f4be
000000d0: 4a17 80bf 82cf 04bf 010c 15bf 2711 d03e
000000e0: 6e18 73bf c1a5 c53d 9c83 8a3f 7c47 61bf
000000f0: 1903 26bf 9d02 99be c51e 92bf b594 6e3f
00000100: ed17 a4be 630d a3bf 4a36 b5be c5b0 ba3e
00000110: 21c4 38bf 637a 65bf acb0 06bf c802 92bf
00000120: f1b0 963d 2dc4 823f 67de debe 454f 00bf
00000130: e19e 9e3e 927e 6a3d 2967 8dbf 57d0 2abf
00000140: d80a 833f efe3 803e 8aac 34bf dcb2 84be
00000150: 957b b83e bdc6 6fbe 7142 66be c3ea 98bd
00000160: 60f6 8ebf 741f a6be d85f 413f fab8 7dbf
00000170: bf74 3bbe 5d3e bbbe 0f94 e93e 3f60 7c3f
00000180: 84cb 18be da77 653f 20bf 7e3f 5f9e ccbe
00000190: 0373 79be d752 92be 955e 46bf 2e0c 353f
000001a0: 4363 463f 6b21 89bd 78ce 8c3e 12ca 22bf
000001b0: ccef 09bf 6a7d 1bbf 360d 8a3f 34a9 2a3f
000001c0: fb89 69bf 7a82 6dbd b1da 2dbe ea83 5abf
000001d0: 4207 7f3f 4807 17bf 9e7d 693f a3cb d2be
000001e0: 83c3 553f 2651 3cbf 2998 e3be ad68 1abf
000001f0: bc5b a5be 1287 a8be 3d87 05bf 0743 29bf
00000200: 514b e6be c764 66bf 188c 8e3f 4768 8c3e
00000210: 754b 7dbd 466f 4abf c90e 5ebf 2cdb 52bf
00000220: bb06 3bbd 8601 43bf 9bae 5b3e 460c 8d3f
00000230: de88 5e3f 426c 91be 0be9 2f3f 7855 a2be
00000240: d360 323e 90ad 54bf ccae b8bc 4741 20be
00000250: df36 193f 86e7 943e 66d3 643f c176 bfbe
00000260: 8e35 fbbe c332 98be 5b3f 8abf 756a d8be
00000270: 0894 25be bdc9 383e a85f 13be d270 2fbf
00000280: 8f17 793f 696d 30be 2e84 dabd 82fa 233f
00000290: 8ded a9be d18d 91be e8df bcbd 389f 6cbf
000002a0: 34b3 7ebf 36c5 dcbe 7cd6 84be f35a 11bf
000002b0: e309 48bf e518 f3be a529 1cbf 3c8d cebe
000002c0: d642 50be cf8d e8be dd9d 4b3e 691a 02bd
000002d0: 512d 4c3f 961b 87bf 49b8 5dbd d4ca 18bf
000002e0: a35c 08bf ee7c d3be 36e2 b7be 772b a4be
000002f0: 9a20 3ebf 272d debe 8809 06bf 9224 023f
00000300: 84cd 0ebf 47ee 413d 1006 513f 515a 71be
00000310: ef49 393e ffbe b5be a454 1d3f 8766 10bf

MLP.2.weight f4 [100, 200]
0.0073895357 -0.26721433 0.1648496 -0.2823451 -0.1658721 -0.17395005 -1.946888 0.12883759
0.06715748 0.19969662 -1.2920444 0.14098445 0.07690505 0.64460516 0.22226924 -0.21006864
-0.3436779 -0.4105666 0.30212167 0.585296 -0.019410236 -1.7730433 -1.1735806 -0.08395981
0.040538505 0.3009527 -0.6089532 0.2785684 -0.033023443 -0.06387979 -0.7395302 0.26009676
-0.109200165 -0.036580313 -0.01331992 -0.7325724 -0.23632619 -0.9643238 0.20527495 -0.6307792
-1.1104461 -0.4159082 -0.3148553 0.14370205 -0.12968056 0.1833363 0.09126504 0.06694372
-0.88139063 0.10470623 0.12381288 -0.2331781 -1.2880199 -0.2316338 0.38318732 -0.19985008
-1.131418 -1.0086422 -0.6874231 -0.5395496 -0.11811428 0.35767028 -0.75275683 0.25896686
-0.037110317 -0.45287326 0.18180993 -0.34475642 0.118573844 0.1477689 0.044667985 -1.6158936
-0.032959342 0.090886734 0.020035513 -0.34436232 0.5127579 0.05271251 0.30691314 0.061156966
0.30087492 0.45479345 0.12914759 0.2338869 -1.6164676 -0.015467763 -0.4244278 0.09158269
1.0873452 0.11308735 -0.7076864 -1.2804786 -0.115524046 0.2136457 -0.6736113 -0.5244546
-0.024285052 -1.574849 0.4301154 -0.111888535 -0.147754 -0.024072379 0.34828952 -0.8719487
-2.086244 0.67651135 -0.48778248 0.07125089 0.28743374 0.32587034 0.3927667 -1.0471498
-0.55448896 -0.33476454 -0.11902323 -0.52702117 0.5220649 0.20820126 0.390237 -0.11763072
0.029622411 0.069786176 -0.15500809 -0.13666911 0.2848211 -0.30105716 0.1502914 -0.22642806
-0.13934325 -1.3158126 1.1870359 0.05586555 -0.40265816 -0.3883529 -0.9113518 -0.48950547
-0.34143126 0.2580176 -0.01598196 0.91393805 0.20026053 -0.34355143 -0.27086505 -0.052820485
-0.23196718 0.178576 -0.22548723 -0.16588092 -0.55220675 -0.35767415 -0.08495314 -0.12546578
-0.20937333 0.109012835 -0.30382192 0.2945594 -0.1339305 0.09343619 0.20611547 0.14851789
-1.5871754 -0.41725144 -0.08192578 -0.16476138 0.86214125 0.41219848 -0.59641856 -2.069042
-1.1812822 0.07336314 -0.0110665765 0.07950976 -0.120432705 -0.17540132 0.30452055 0.099588715
-0.08430427 -0.63858145 -0.16658978 -0.21918356 -1.8367038 -0.3958135 -0.42788696 0.11526682
0.26801702 0.046367083 -0.018502863 0.4274389 0.06060839 0.40435767 -0.57789886 0.020244656
-0.065109186 -0.18298869 -2.4561608 -0.0013876561 -0.040324308 0.11204784 -0.18848683 -0.0018151274
-0.5624467 2.0104291 -0.38299417 -0.013558765 -0.23560232 -0.478463 0.26041353 -0.24643204
-0.18829772 -0.29551336 -1.1873957 -0.72671294 0.6130749 -0.23681703 0.69094634 0.53560925
-0.45259514 -0.2028629 -0.42043176 -0.32665727 0.089552775 0.7050726 -0.13426115 -0.05470097
-0.18433397 -0.4270829 -0.20142789 -0.60342664 -0.50295174 -1.2680295 -0.49644333 -0.4218331
0.30497754 0.21133554 0.4739563 0.50444776 -0.5539755 -0.5779114 -0.68703383 -1.128354
0.7681477 -1.1154392 -0.6820189 1.1041942 0.5814039 -0.3753768 0.5835549 -0.17334606
-2.8064768 0.22764887 0.007989414 -0.10482806 1.0415202 -0.07040535 0.023909522 0.7474094
00000000: eb23 f23b 51d0 88be 55ce 283e 898f 90be
00000010: 60da 29be f61f 32be a033 f9bf 00ee 033e
00000020: dc89 893d 457d 4c3e b661 a5bf 3a5e 103e
00000030: 6580 9d3d d804 253f 8c9a 633e 3c1c 57be
00000040: 8df6 afbe c935 d2be b1af 9a3e f5d5 153f
00000050: 3702 9fbc 15f3 e2bf e437 96bf 1ff3 abbd
00000060: b40b 263d 7916 9a3e 5be4 1bbf 84a0 8e3e
00000070: 9743 07bd 68d3 82bd da51 3dbf 672b 853e
00000080: 56a4 dfbd 3dd5 15bd cb3b 5abc dd89 3bbf
00000090: 7eff 71be eddd 76bf 9933 523e bf7a 21bf
000000a0: 1923 8ebf ebf1 d4be b734 a1be a126 133e
000000b0: fbca 04be 83bc 3b3e 2ae9 ba3d ca19 893d
000000c0: d1a2 61bf 3870 d63d 9b91 fd3d 3dc6 6ebe
000000d0: d6dd a4bf 6931 6dbe 2131 c43e 80a5 4cbe
000000e0: 4ed2 90bf 301b 81bf f6fa 2fbf ec1f 0abf
000000f0: e6e5 f1bd 8f20 b73e acb4 40bf 4e97 843e
00000100: fd00 18bd 01df e7be 622c 3a3e ea83 b0be
00000110: d8d6 f23d bb50 173e c7f5 363d 9ad5 cebf
00000120: 6000 07bd d322 ba3d 8421 a43c 4250 b0be
00000130: 1a44 033f 13e9 573d b823 9d3e ba7f 7a3d
00000140: 470c 9a3e b0da e83e 443f 043e 0c80 6f3e
00000150: 69e8 cebf 806c 7dbc 9a4e d9be b58f bb3d
00000160: 212e 8b3f 579a e73d f02a 35bf b9e6 a3bf
00000170: df97 ecbd f0c5 5a3e ca71 2cbf a842 06bf
00000180: 72f1 c6bc a794 c9bf 1638 dc3e d125 e5bd
00000190: d34c 17be 7033 c5bc 0153 b23e 0838 5fbf
000001a0: 0685 05c0 d92f 2d3f a0be f9be fdeb 913d
000001b0: 842a 933e 7ad8 a63e b818 c93e 0109 86bf
000001c0: fdf2 0dbf 4266 abbe 74c2 f3bd dcea 06bf
000001d0: 0ca6 053f b632 553e 25cd c73e 60e8 f0bd
000001e0: b3aa f23c 0eec 8e3d 71ba 1ebe fdf2 0bbe
000001f0: 12d4 913e 2a24 9abe fde5 193e c2dc 67be
00000200: ffaf 0ebe 8c6c a8bf cbf0 973f 46d3 643d
00000210: 3629 cebe 31d6 c6be 5a4e 69bf 76a0 fabe
00000220: 14d0 aebe e21a 843e 99ec 82bc d8f7 693f
00000230: 1911 4d3e f9e5 afbe d3ae 8abe 4b5a 58bd
00000240: ce88 6dbe a0dc 363e 20e6 66be b0dc 29be
00000250: 6c5d 0dbf 1121 b7be e9fb adbd 1a7a 00be
00000260: f665 56be 1f42 df3d 8c8e 9bbe 7dd0 963e
00000270: 1425 09be 795b bf3d ef0f 533e 1315 183e
00000280: 9028 cbbf fba1 d5be b4c8 a7bd 35b7 28be
00000290: 4ab5 5c3f ae0b d33e e3ae 18bf 2f6b 04c0
000002a0: 4134 97bf 6a3f 963d 9650 35bc 03d6 a23d
000002b0: 6ca5 f6bd 679c 33be 1eea 9b3e 2bf5 cb3d
000002c0: b8a7 acbd 137a 23bf 8396 2abe a871 60be
000002d0: 1c19 ebbf 11a8 cabe 0014 dbbe 0311 ec3d
000002e0: 8739 893e 69eb 3d3d 5193 97bc 46d9 da3e
000002f0: 8140 783d f807 cf3e 2ef1 13bf 1fd8 a53c
00000300: f757 85bd 6361 3bbe bd31 1dc0 03e2 b5ba
00000310: 1a2b 25bd 5779 e53d b102 41be 92e9 edba
00000320: 82fc 0fbf dfaa 0040 d017 c4be 9525 5ebc
00000330: bc41 71be 1af9 f4be ec54 853e ae58 7cbe
00000340: 1ed1 40be 874d 97be 95fc 97bf dc09 3abf
00000350: 7af2 1c3f 2a80 72be dce1 303f b01d 093f
00000360: 8dba e7be 4bbb 4fbe d542 d7be 9f3f a7be
00000370: 7267 b73d a37f 343f c17b 09be 200e 60bd
00000380: 0bc2 3cbe 9caa dabe 1d43 4ebe 2b7a 1abf
00000390: 72c1 00bf ca4e a2bf d22d febe 82fa d7be
000003a0: 0426 9c3e 5868 583e 66aa f23e 7d23 013f
000003b0: 57d1 0dbf 00f2 13bf 73e1 2fbf e76d 90bf
000003c0: 54a5 443f b6c6 8ebf ca98 2ebf 3c56 8d3f
000003d0: e3d6 143f 6331 c0be db63 153f a181 31be
000003e0: 519d 33c0 c91c 693e 08e6 023c 18b0 d6bd
000003f0: 8950 853f ae30 90bd e7dd c33c 3956 3f3f

MLP.2.bias f4 [100]
1.0958931 -0.3557219 0.8416388 0.20146824 -0.5165545 -0.170743 -0.15132083 0.39686835
-0.79101604 -0.8405315 0.164545 -0.14954889 -0.76772183 -0.92499655 0.39741403 -0.41609117
-0.2812932 -0.23444638 -0.0950599 -0.8477229 -0.30664253 -0.025184745 -0.7113227 -0.86537075
0.8295075 -0.5130376 0.51969707 -0.09324339 -0.49719694 0.028774453 0.53286994 0.23503017
-0.8828379 -0.90582275 -0.084680825 0.2911888 -0.7883659 -0.29170924 -0.8580138 -0.83650386
-0.41118455 -0.9079801 -0.17126165 0.22734839 0.39027658 -0.84506524 0.12523323 0.13115025
0.96942294 0.7067627 0.19153254 0.02959892 0.040831883 0.1431501 0.87276745 -0.81069475
-0.5786405 -0.38400507 -0.22718416 -0.67692727 -0.35023773 -0.28950632 0.52122235 0.97660303
0.09538342 0.057607476 0.2689485 -0.30080974 -0.39981857 -0.24829301 -0.46934748 -0.0015624773
-0.58872116 0.31917396 -0.97257143 -0.33140135 -0.7789994 -0.17344515 0.70056826 -0.106092684
-0.28588486 0.052963216 -0.69979495 -0.32046536 0.65200925 0.560945 0.16732195 -0.34150603
-0.18480332 0.42591217 0.0871758 -0.8958149 -0.5094571 0.48985055 -0.07797859 0.48347238
-0.3010396 -0.026273517 -0.100729875 -0.2806817
00000000: 3a46 8c3f 2e21 b6be a475 573f b14d 4e3e
00000010: ea3c 04bf 41d7 2ebe d9f3 1abe 5432 cb3e
00000020: 0780 4abf 132d 57bf 7c7e 283e 5823 19be
00000030: 6b89 44bf 93cc 6cbf da79 cb3e e709 d5be
00000040: aa05 90be b612 70be c4ae c2bd 5e04 59bf
00000050: 4000 9dbe 3d50 cebc 3f19 36bf f088 5dbf
00000060: 9b5a 543f 6f56 03bf de0a 053f 64f6 bebd
00000070: 9990 febe 67b8 eb3c 2a6a 083f c0ab 703e
00000080: aa01 62bf 00e4 67bf 246d adbd b316 953e
00000090: 59d2 49bf ea5a 95be cba6 5bbf 1e25 56bf
000000a0: c886 d2be 6271 68bf 375f 2fbe 04ce 683e
000000b0: 55d2 c73e 3256 58bf 243d 003e 404c 063e
000000c0: 1a2c 783f 66ee 343f 1b21 443e 6f79 f23c
000000d0: 553f 273d f195 123e b06d 5f3f b189 4fbf
000000e0: c921 14bf 509c c4be f7a2 68be 1b4b 2dbf
000000f0: 5c52 b3be 2c3a 94be d46e 053f a802 7a3f
00000100: 6258 c33d d1f5 6b3d 9eb3 893e bc03 9abe
00000110: 05b5 ccbe 8640 7ebe 504e f0be 0acc ccba
00000120: 6eb6 16bf c56a a33e 71fa 78bf 70ad a9be
00000130: 816c 47bf 9b9b 31be 7158 333f 1f47 d9bd
00000140: 805f 92be f5ef 583d c325 33bf 0914 a4be
00000150: 14ea 263f 179a 0f3f 7256 2b3e e1d9 aebe
00000160: 153d 3dbe 2911 da3e 3a89 b23d 2054 65bf
00000170: c86b 02bf b1cd fa3e 3db3 9fbd b189 f73e
00000180: dd21 9abe 8f3b d7bc 774b cebd 83b5 8fbe

MLP.4.weight f4 [50, 100]
-1.0801741 0.1740695 -0.3316813 -0.07852099 0.31309825 -0.07891934 0.025740582 -0.18058783
0.2798609 1.3293362 -0.2677435 -0.00629984 0.39331543 1.2900321 0.088907994 0.49770206
-0.38883984 -0.009280984 0.10369888 1.0204548 0.88298184 0.20767322 0.63837564 0.6061902
-0.31233856 0.3407719 -0.037139382 0.13681863 0.018414602 -0.35385147 -0.11994311 0.055344827
0.9494898 0.99231386 0.26273012 -0.23194149 0.7960772 0.16037817 1.942325 0.47943062
0.024544824 0.44688258 0.14359872 -0.0743658 0.2100948 1.6186433 -0.18068309 0.2927706
-1.2770997 -0.7749834 0.12737323 -0.073091954 0.173009 0.11058187 -1.1392661 0.29224753
0.16752177 0.71978015 0.17790572 0.27184066 0.75571054 -0.03787625 -0.382627 -0.77849895
0.5331706 0.14037661 -0.302292 0.15251511 0.34667417 -0.07185351 0.6849443 -0.033853482
0.10678568 -0.1796457 1.5335147 0.13522352 -0.061170265 -0.005095063 -0.7058495 0.092562705
-0.14488862 0.19005917 0.041671004 -0.21206248 -0.49338344 0.123731084 -0.14042222 0.37282035
0.002490757 -0.17352419 0.21675852 0.7601219 0.14927383 -0.42437732 0.27158514 -0.007706374
-0.024438523 -0.08128826 0.10651837 -0.05810767 1.2277882 0.12872653 0.5695766 0.110421
0.08865664 0.095616475 -0.0300304 1.2083393 -0.44597164 -0.86362207 -0.2669057 -0.06675289
-0.21739022 -0.7515077 1.1951066 -0.27704284 0.5977822 -0.1080638 -0.12250894 -0.6399771
-0.39786002 0.007704586 -0.5534994 -0.51325846 0.5790623 0.14495695 -0.060458634 0.021649411
-0.7883793 0.05275149 1.4022683 0.29645747 -0.8166353 -0.8451985 0.14356112 0.059971496
-1.1100557 -0.04156018 -1.1237411 -0.72486687 -0.4466217 -0.7141308 0.12739351 -0.009318329
-0.45884362 -0.85579747 0.005413363 0.22581577 0.36254922 0.49158108 -0.43942693 -0.29603985
-0.044220366 0.0686218 0.60945046 -0.17799962 -0.13974752 -0.28152853 -0.3516482 0.0485225
0.0037395563 0.21426746 0.59724194 0.57661086 -0.59278387 0.13569923 0.43357068 0.03866769
-0.5044643 -0.047662266 -0.8018777 -0.25245163 -0.23032714 0.1916146 -1.0583334 0.05124481
-0.44776946 0.12286976 0.87394667 0.060566053 0.15808189 -0.33385298 -0.42352134 -0.06351951
0.45616394 0.14114945 0.42163336 -0.29492956 0.2190545 0.71793616 -0.1861701 -0.60434854
0.17078683 1.0037462 -0.31957048 -0.111518264 -0.5463267 0.1482427 -0.041080475 0.2736452
0.70287675 0.081140585 0.03240901 0.034793228 -0.22323267 0.34421018 0.38422495 0.20770352
0.007971957 -0.16313761 0.12877809 -0.27715534 -0.04782691 -0.23311196 0.43361223 0.5406687
0.25088966 -0.0049659805 0.18086062 -0.14173158 1.5438968 0.08193112 0.15410241 -0.07857866
-0.18768257 -0.0068747853 -0.119983956 -0.22842868 0.37525007 -0.09806646 -0.23815046 0.19476719
-0.09455692 -0.24865729 -0.4789878 -0.28110358 2.0489385 0.02680911 -0.20300928 1.5639555
0.056862555 -0.14759274 0.07307687 -0.25792143 -0.1280355 -0.005840278 -0.23211323 0.6870922
0.16879404 -0.10641651 -0.2847049 -0.12987973 -0.07344807 -0.3174221 -0.23871876 -0.7990831
00000000: 2543 8abf 463f 323e 22d2 a9be 9dcf a0bd
00000010: 6a4e a03e 77a0 a1bd eadd d23c 04ec 38be
00000020: ee49 8f3e b027 aa3f ad15 89be e36e cebb
00000030: a460 c93e c61f a53f 6515 b63d ced2 fe3e
00000040: 0416 c7be 450f 18bc 1460 d43d 439e 823f
00000050: 190b 623f 4aa8 543e 966c 233f 482f 1b3f
00000060: d7ea 9fbe a879 ae3e 771f 18bd 2f1a 0c3e
00000070: 38da 963c 052c b5be bca4 f5bd 42b1 623d
00000080: c311 733f 4808 7e3f 9084 863e 1282 6dbe
00000090: b7cb 4b3f 2d3a 243e 1b9e f83f ee77 f53e
000000a0: 3a12 c93c cbcd e43e 8b0b 133e 194d 98bd
000000b0: 1723 573e b42f cf3f fd04 39be 07e6 953e
000000c0: 0178 a3bf 5065 46bf 216e 023e 3cb1 95bd
000000d0: 4529 313e bf78 e23d 79d3 91bf 78a1 953e
000000e0: d48a 2b3e 8343 383f eb2c 363e b32e 8b3e
000000f0: 3f76 413f 2024 1bbd b0e7 c3be b54b 47bf
00000100: de7d 083f e3be 0f3e 04c6 9abe ec2c 1c3e
00000110: 477f b13e ef27 93bd 8258 2f3f f3a9 0abd
00000120: 73b2 da3d 0bf5 37be 364a c43f 0978 0a3e
00000130: ac8d 7abd 7cf4 a6bb 8eb2 34bf 8491 bd3d
00000140: af5d 14be df9e 423e 37af 2a3d e826 59be
00000150: c19c fcbe b966 fd3d d8ca 0fbe 4fe2 be3e
00000160: f83b 233b 53b0 31be f2f5 5d3e 5997 423f
00000170: 3ddb 183e fc47 d9be 350d 8b3e c085 fcbb
00000180: 4c33 c8bc 767a a6bd 4e26 da3d 4f02 6ebd
00000190: 2a28 9d3f e3d0 033e c6cf 113f 6824 e23d
000001a0: 9d91 b53d 92d2 c33d 5002 f6bc ddaa 9a3f
000001b0: 6556 e4be 5616 5dbf dda7 88be bdb5 88bd
000001c0: 8b9b 5ebe cf62 40bf 41f9 983f 8fd8 8dbe
000001d0: 4108 193f 8e50 ddbd f8e5 fabd 8ad5 23bf
000001e0: 4fb4 cbbe c076 fc3b 23b2 0dbf e864 03bf
000001f0: 6d3d 143f 986f 143e 79a3 77bd 1b5a b13c
00000200: 3ad3 49bf f211 583d 877d b33f 46c9 973e
00000210: 030f 51bf ee5e 58bf b001 133e aca4 753d
00000220: 4e16 8ebf 023b 2abd c0d6 8fbf e090 39bf
00000230: 99ab e4be 47d1 36bf 7273 023e e8ab 18bc
00000240: 8ded eabe 8b15 5bbf 9562 b13b 403c 673e
00000250: 0da0 b93e 84b0 fb3e 91fc e0be 8992 97be
00000260: 6a20 35bd 9689 8c3d f204 1c3f 8845 36be
00000270: f919 0fbe 8224 90be 3c0b b4be 87bf 463d
00000280: 5813 753b ee68 5b3e d9e4 183f c59c 133f
00000290: afc0 17bf bdf4 0a3e fafc dd3e 0362 1e3d
000002a0: 9324 01bf 8239 43bd db47 4dbf 5741 81be
000002b0: e1da 6bbe 9e36 443e 7877 87bf 14e6 513d
000002c0: 0a42 e5be 24a3 fb3d f8ba 5f3f 1c14 783d
000002d0: 38e0 213e c7ee aabe cad7 d8be 8416 82bd
000002e0: 528e e93e 7b89 103e 54e0 d73e 0201 97be
000002f0: d34f 603e aaca 373f 60a3 3ebe 96b6 1abf
00000300: bee2 2e3e c17a 803f be9e a3be b063 e4bd
00000310: 11dc 0bbf efcc 173e 0044 28bd 391b 8c3e
00000320: bbef 333f 092d a63d 4fbf 043d 5883 0e3d
00000330: 1b97 64be 513c b03e 22b9 c43e 3bb0 543e
00000340: d09c 023c 8c0d 27be 67de 033e 4ee7 8dbe
00000350: 26e6 43bd e7b4 6ebe 6c02 de3e 4469 0a3f
00000360: 9c74 803e aab9 a2bb 8733 393e 1522 11be
00000370: 699e c53f 81cb a73d 06cd 1d3e d9ed a0bd
00000380: dc2f 40be e145 e1bb 26ba f5bd 35e9 69be
00000390: c720 c03e 11d7 c8bd b7dd 73be 0d71 473e
000003a0: 0fa7 c1bd 04a0 7ebe e43d f5be cfec 8fbe
000003b0: cf21 0340 c79e db3c aae1 4fbe b22f c83f
000003c0: b6e8 683d 8d22 17be 53a9 953d 470e 84be
000003d0: bd1b 03be ce5f bfbb 17af 6dbe 46e5 2f3f
000003e0: 58d8 2c3e e6f0 d9bd d7c4 91be 31ff 04be
000003f0: f16b 96bd 2685 a2be b172 74be b690 4cbf

MLP.4.bias f4 [50]
-1.5155588 1.0798879 -0.55013186 -1.1640922 -0.5591182 0.9416156 -0.54022324 -0.24723649
-1.0539314 -0.054975394 -0.3518557 -0.44469026 -1.5888841 -0.89843786 -0.70831585 -1.3284917
-0.31236327 -0.5620812 -0.5284684 -0.31158027 -0.6539333 -1.2722548 1.2214667 -0.085354626
-0.3898373 0.030758092 -1.4842628 -0.22408192 -0.3629975 -0.23830168 -0.38069978 -0.09887762
-0.2672676 -1.056379 -0.3881439 -0.5308771 -0.48176283 -0.66545033 -1.5753856 -0.2990067
-1.2524383 -1.2421472 0.29348776 -0.25282314 -0.5369284 0.06515501 -1.3115755 -0.516367
-0.21283707 -0.487754
00000000: d5fd c1bf c439 8a3f 71d5 0cbf f900 95bf
00000010: 5f22 0fbf b80d 713f 124c 0abf 902b 7dbe
00000020: 39e7 86bf e12d 61bd 6e26 b4be 71ae e3be
00000030: 8e60 cbbf 0600 66bf 3054 35bf 040c aabf
00000040: 14ee 9fbe 8ee4 0fbf b449 07bf 7387 9fbe
00000050: 2c68 27bf 3fd9 a2bf 0559 9c3f 68ce aebd
00000060: c198 c7be 65f8 fb3c 53fc bdbf bb75 65be
00000070: cfda b9be 5b05 74be 15eb c2be 5a80 cabd
00000080: 4dd7 88be 6d37 87bf ccba c6be 90e7 07bf
00000090: 9ea9 f6be f45a 2abf 3ca6 c9bf 6817 99be
000000a0: e64f a0bf aefe 9ebf 0744 963e 0972 81be
000000b0: 2474 09bf fd6f 853d b5e1 a7bf a130 04bf
000000c0: f6f1 59be e4ba f9be

MLP.6.weight f4 [25, 50]
0.49186504 -0.60061836 0.11867144 -0.03596848 -0.119227216 -0.65703344 -0.54369897 -0.28094643
-0.03484345 -0.19520944 -0.67237383 0.3412919 0.3580458 0.3809563 -0.4413578 -0.36869746
0.16687967 0.100693226 0.0015484027 -0.32234156 0.12179478 0.045595158 -0.2918731 -0.23505226
-0.01528672 -0.03221584 0.25495273 -0.07105678 0.005395184 -0.5470109 -0.10074238 -0.17337869
-0.21840166 0.65294516 0.2231052 0.35613924 -0.31768614 -0.4623439 0.46139422 -0.09758013
1.3562272 0.95854074 0.14567363 -0.09355391 0.118964665 0.064329885 0.097763464 -0.06426004
-0.060366087 -0.26536942 0.15403238 0.1871714 0.12860161 -0.53965193 -1.1388907 -0.090706915
-1.6659135 0.7800149 0.36427495 -0.7398477 0.074959934 -0.6714836 0.14992124 0.8835151
-0.7586097 0.025534859 -0.48236156 -0.40755647 0.11010417 -0.43143177 0.016290214 -0.46665883
0.03316894 0.7873952 -0.62767524 -0.15285102 0.36945057 0.15462573 0.09746296 0.17910054
-0.24851024 -0.14625396 -0.19435151 0.384643 0.57230604 0.32339782 0.14090517 0.53195447
0.16101404 -1.1064582 0.015807293 0.7707086 1.797779 0.36570588 3.4252539 -0.3478508
-0.2850915 -0.13466136 0.22141853 -0.027395196 0.037020445 0.05045869 -0.024834402 0.0947875
0.19091123 0.1148511 -0.28522965 0.113702096 0.052814562 0.38712308 0.06857142 0.23188269
0.12534887 0.018329505 -0.025496699 -0.018405268 0.4442643 -0.392273 0.019714192 0.2646851
-0.043489628 -0.002596282 -0.013264458 0.60566205 0.3889711 0.22044995 0.11562482 -0.3952791
-0.2925796 0.04882152 -0.07823677 0.18016979 -0.2299582 0.032205176 0.73015535 0.2951493
0.23193733 -0.5312113 0.11730382 0.2974028 -0.07827389 0.47594738 -0.2648022 0.66265166
0.18720867 0.3423407 0.15574586 -0.89139605 0.22452116 -0.22346023 0.5072672 -0.005505516
-0.094957575 -0.19473666 -0.739 0.4113988 -0.9620123 -0.46888238 0.07631526 0.766124
-0.24221058 0.25096494 0.12777552 0.561166 -1.1456283 -1.2675402 -0.7364879 0.0783123
0.060848378 -0.36544466 0.009939656 0.6100402 -0.03301885 0.3269118 0.16020899 -0.03140642
0.5769616 -0.4469281 0.11532914 0.6943317 0.10949391 -0.48881295 0.07344699 -0.870566
0.017343424 1.6683326 -0.40263665 -0.26514214 0.5648208 -0.70636076 0.039320167 0.86092466
-0.3460628 0.71444565 -0.0889175 -0.16142778 0.560836 0.06996644 -0.2545253 -0.53548676
0.28656727 -0.07519041 0.028964525 0.06823196 -0.73036855 0.2071082 0.12320705 0.51758355
-0.18348457 0.3898567 -0.24109067 0.29739448 0.30045977 0.050626583 0.45419028 0.2199441
-0.28091308 0.5696816 -0.23280948 0.22022517 -0.026217442 0.36669323 -0.031336926 0.5016443
-0.32512105 0.39122206 0.10086112 -0.5459377 -0.74228764 -0.80256844 1.050433 0.8731099
0.4679354 1.5619357 -0.29230562 -0.45775583 -0.4882333 -0.26549426 0.30013037 0.27782306
0.19076753 -0.14676094 0.7239064 0.2507334 0.021625524 -0.529472 0.18537289 -0.21891399
-0.35795712 -0.5679096 0.7798788 -0.9137747 0.30754313 0.15561906 -0.26592666 -0.62120867
00000000: bcd5 fb3e 20c2 19bf 030a f33d af53 13bd
00000010: 662d f4bd 5833 28bf db2f 0bbf 36d8 8fbe
00000020: 01b8 0ebd fce4 47be b120 2cbf d0bd ae3e
00000030: c751 b73e b40c c33e a6f9 e1be eac5 bcbe
00000040: 81e2 2a3e 4038 ce3d c6f3 ca3a f409 a5be
00000050: 8b6f f93d fdc1 3a3d 6470 95be 8ab1 70be
00000060: 2775 7abc c2f4 03bd 2a89 823e 3886 91bd
00000070: 15ca b03b e808 0cbf 0552 cebd 2f8a 31be
00000080: afa4 5fbe 6a27 273f b175 643e e257 b63e
00000090: c2a7 a2be 57b8 ecbe dd3b ec3e 17d8 c7bd
000000a0: da98 ad3f ed62 753f 782b 153e 3199 bfbd
000000b0: bfa3 f33d 63bf 833d 3638 c83d c59a 83bd
000000c0: 6e42 77bd 80de 87be aaba 1d3e dca9 3f3e
000000d0: 24b0 033e a126 0abf 2cc7 91bf 8cc4 b9bd
000000e0: a73c d5bf 0eaf 473f 3f82 ba3e a966 3dbf
000000f0: 9884 993d 59e6 2bbf f484 193e 0c2e 623f
00000100: 3f34 42bf 7b2e d13c 18f8 f6be 3eab d0be
00000110: 4c7e e13d a0e4 dcbe 0e73 853c e8ed eebe
00000120: 28dc 073d bb92 493f 53af 20bf fa84 1cbe
00000130: a028 bd3e 3556 1e3e a99a c73d 2266 373e
00000140: 7879 7ebe 99c3 15be 1504 47be edef c43e
00000150: a682 123f 6694 a53e 7249 103e 2b2e 083f
00000160: dde0 243e 6ca0 8dbf 4c7e 813c 294d 453f
00000170: 9f1d e63f cd3d bb3e 5c37 5b40 8019 b2be
00000180: 83f7 91be abe4 09be 8abb 623e e46b e0bc
00000190: c0a2 173d c5ad 4e3d 8471 cbbc f31f c23d
000001a0: 3c7e 433e 0e37 eb3d 9f09 92be a5dc e83d
000001b0: 1554 583d ff34 c63e 2c6f 8c3d a872 6d3e
000001c0: 745b 003e c227 963c 74de d0bc a5c6 96bc
000001d0: 9c76 e33e 02d8 c8be a87f a13c ce84 873e
000001e0: 2e22 32bd 6226 2abb 2b53 59bc ab0c 1b3f
000001f0: 3827 c73e a2bd 613e b5cc ec3d 0662 cabe
00000200: fecc 95be 13f9 473d 9a3a a0bd 6e7e 383e
00000210: 2a7a 6bbe 93e9 033d 76eb 3a3f cf1d 973e
00000220: fb80 6d3e 77fd 07bf fc3c f03d 2e45 983e
00000230: 104e a0bd 60af f33e 2794 87be 8aa3 293f
00000240: a1b3 3f3e 4847 af3e d87b 1f3e 8832 64bf
00000250: e0e8 653e c2d2 64be 43dc 013f 9e67 b4bb
00000260: 1e79 c2bd 0c69 47be 1b2f 3dbf dda2 d23e
00000270: 7046 76bf 5a11 f0be 2d4b 9c3d b420 443f
00000280: 0d06 78be 7a7e 803e 96d7 023e 93a8 0f3f
00000290: f3a3 92bf c23e a2bf 798a 3cbf 3362 a03d
000002a0: 263c 793d 901b bbbe f0d9 223c 982b 1c3f
000002b0: c63e 07bd fc60 a73e d30d 243e 05a4 00bd
000002c0: c1b3 133f c3d3 e4be af31 ec3d b9bf 313f
000002d0: 583e e03d b145 fabe 606b 963d 6add 5ebf
000002e0: cc13 8e3c ec8b d53f 6426 cebe b6c0 87be
000002f0: 1998 103f 0fd4 34bf 2f0e 213d 8f65 5c3f
00000300: 252f b1be e9e5 363f 611a b6bd 534d 25be
00000310: f392 0f3f 914a 8f3d 2451 82be a915 09bf
00000320: f2b8 923e 6efd 99bd 0347 ed3c 33bd 8b3d
00000330: 6ff9 3abf 2c14 543e fa53 fc3d 5b80 043f
00000340: 61e3 3bbe 4c9b c73e 79e0 76be 1744 983e
00000350: ddd5 993e d25d 4f3d a18b e83e 0739 613e
00000360: d7d3 8fbe a7d6 113f 9c65 6ebe b582 613e
00000370: f6c5 d6bc 37bf bb3e 265b 00bd c36b 003f
00000380: 4476 a6be 424e c83e 4690 ce3d 93c2 0bbf
00000390: 9006 3ebf 2075 4dbf 9774 863f 2184 5f3f
000003a0: 3b95 ef3e 82ed c73f 15a9 95be f95e eabe
000003b0: b7f9 f9be ddee 87be b0aa 993e d33e 8e3e
000003c0: 9058 433e 8048 16be ee51 393f 2160 803e
000003d0: 0328 b13c 7a8b 07bf 64d2 3d3e fd2a 60be
000003e0: 2846 b7be 8662 11bf 23a6 473f 24ed 69bf
000003f0: 4b76 9d3e 9a5a 1f3e 8a27 88be 8807 1fbf

MLP.6.bias f4 [25]
-0.4798549 -0.052448396 -0.062715635 -0.11367442 -0.054690976 -0.7783193 -1.108793 -0.019097911
-1.2450651 -0.50459504 -0.65652615 -0.6438398 0.48633 -0.05097819 -0.9792891 0.23468064
-0.41412637 0.28862682 -1.6400543 -0.63166595 -0.16361892 0.50406116 -0.1452628 0.18996572
-1.2341807
00000000: 8baf f5be 21d4 56bd 0e71 80bd 22ce e8bd
00000010: a503 60bd ef3f 47bf eeec 8dbf 3973 9cbc
00000020: 4b5e 9fbf 242d 01bf 1912 28bf afd2 24bf
00000030: 3f00 f93e 82ce 50bd b1b2 7abf 1f50 703e
00000040: 5f08 d4be e5c6 933e 4ded d1bf dcb4 21bf
00000050: b88b 27be 270a 013f c5bf 14be 6086 423e
00000060: a2f9 9dbf

MLP.8.weight f4 [10, 25]
0.108183935 0.33547035 0.2334506 -0.039837997 -0.12921663 0.15050085 0.04637591 -0.15514937
0.10491507 0.32080194 -0.34439522 0.13617294 -0.82100564 -0.13153791 0.041634552 0.28786907
-0.061620027 0.6584131 -0.4480787 -0.09470961 -0.052493148 -0.2655293 0.053580865 -0.14197232
0.026024045 -0.35063002 0.036377057 0.50987655 0.017660873 -0.20913033 -0.049275782 0.08042866
0.15176387 -0.013846414 0.14970864 -0.19226333 0.22226155 0.32399848 -0.07820238 0.18616213
-0.35292992 -0.033609454 0.27633023 0.25134853 0.27052045 -0.026628925 -0.47398198 -0.13517497
0.12916076 -0.21396196 0.4314413 0.030032182 0.41097462 -0.7341796 -0.20527247 0.061176002
0.19625513 -0.29822683 -0.21833785 0.22783238 0.033028275 -0.26960394 0.0023471967 0.0019997514
0.2034879 -0.35795948 0.040885624 0.38859436 -0.410917 -0.1309459 -0.10883231 0.1814874
0.14472994 -0.20433398 -0.02857748 0.16542785 -0.14315702 -0.028937576 -0.06153132 0.052076295
0.17157935 0.05132435 0.1356464 0.10321192 -0.07691135 0.21085298 0.37445116 0.33145937
0.0075657344 0.14994192 -0.27217966 0.19914974 -0.14878991 -0.3652263 -0.22080345 -0.042301282
0.27588117 -0.20267226 -0.5534919 -0.20868473 -0.15743099 -0.023751054 0.0015395085 0.023702849
-0.056726072 -0.10598547 0.079756975 -0.07832765 0.48429042 -0.14749345 -1.4250907 -0.27900544
-0.061982702 0.08298653 0.051556494 0.068277776 0.030518357 -0.016224558 0.36764646 0.043793272
0.12021282 -0.07696538 0.047803 0.010723948 0.105694115 0.17600487 0.03541086 -0.33955002
-0.08557397 -0.20895024 0.085666224 0.059687786 0.24249241 -0.54036033 -0.27641097 0.7685491
0.39732444 0.17210466 -0.20723052 1.176722 -0.06734986 0.047595467 0.61247545 -0.30945677
0.30371872 -0.62294227 -0.7263141 -0.4567368 0.48560867 -0.23966461 -0.51122653 -0.15904789
-0.21150012 0.21794668 -0.16391663 -0.050118014 -0.08511469 0.103944555 -0.408676 0.19757037
-0.5099293 0.03336603 0.13227282 0.5347172 0.57772374 0.23499824 -0.12371481 0.35179475
0.37415347 0.28203687 -0.24973327 -0.23077922 -0.120801866 0.08272766 0.1823037 -0.042709105
0.5318715 0.023384534 -0.06664716 -0.3668062 0.5948529 0.21625991 -0.2729134 -0.013248883
-0.039081015 -0.17238957 0.07736809 0.79161245 0.03850659 0.079263605 -0.17978193 0.008604463
0.010448557 1.1182156 -0.11739143 0.02026962 0.13655674 -0.05090754 0.22768825 0.5295779
-0.31997132 -0.64429927 0.042714562 0.15568486 0.1872283 -0.28398842 -0.11295308 0.05402578
-0.31055394 0.77355355 -0.73198724 -0.440046 -0.31069377 0.05910974 0.31818187 -0.05043022
0.15186179 0.046110693 0.7004068 0.8303292 -0.04763477 -0.006235905 -0.38611966 -0.16678505
0.35034928 0.6616239 -0.024409808 0.18418877 -0.18224998 -0.1414999 1.1031617 0.90898293
-0.0036277107 -0.35247466 -0.025781335 -0.53834975 0.58591527 -0.25803092 -0.39253992 -0.1974034
-0.31128773 -0.28173506 0.090339266 1.6019248 -0.04604457 -0.20052595 0.25261942 -0.205683
-0.0057415897 1.1250821
00000000: 8a8f dd3d c5c2 ab3e ad0d 6f3e 2b2d 23bd
00000010: 5d51 04be e51c 1a3e abf4 3d3d 7adf 1ebe
00000020: b6dd d63d 2740 a43e 9254 b0be eb70 0b3e
00000030: 6d2d 52bf e0b1 06be fe88 2a3d 9363 933e
00000040: 4865 7cbd c38d 283f 926a e5be 1df7 c1bd
00000050: 0e03 57bd 75f3 87be 9c77 5b3d 3161 11be
00000060: 6130 d53c c785 b3be 1c00 153d 4587 023f
00000070: 89ad 903c 4326 56be 67d5 49bd c8b7 a43d
00000080: fd67 1b3e 12dc 62bc 394d 193e aee0 44be
00000090: 8898 633e 21e3 a53e 9228 a0bd 49a1 3e3e
000000a0: 3bb3 b4be 11aa 09bd 287b 8d3e c1b0 803e
000000b0: a881 8a3e e724 dabc c4ad f2be 4f6b 0abe
000000c0: b842 043e d818 5bbe e0e5 dc3e 0d06 f63c
000000d0: 446b d23e 32f3 3bbf f232 52be b093 7a3d
000000e0: 1bf7 483e 30b1 98be f593 5fbe e44c 693e
000000f0: a848 073d 8709 8abe 6dd3 193b 430e 033b
00000100: 225f 503e 7746 b7be af77 273d d7f5 c63e
00000110: b763 d2be af16 06be 79e3 debd d5d7 393e
00000120: 1634 143e ed3c 51be 521b eabc eb65 293e
00000130: c197 12be 7f0e edbc 4408 7cbd f44d 553d
00000140: 7fb2 2f3e 7b39 523d e4e6 0a3e c560 d33d
00000150: b383 9dbd d8e9 573e 10b8 bf3e 0bb5 a93e
00000160: fbe9 f73b 608a 193e 225b 8bbe e9ed 4b3e
00000170: 625c 18be f1fe babe 4d1a 62be 1c44 2dbd
00000180: 4c40 8d3e 5189 4fbe a5b1 0dbf 73b1 55be
00000190: 9735 21be 9291 c2bc 55c9 c93a 7a2c c23c
000001a0: 9959 68bd e90e d9bd a057 a33d 3f6a a0bd
000001b0: eaf4 f73e 8608 17be 5f69 b6bf cdd9 8ebe
000001c0: 93e1 7dbd d8f4 a93d e72c 533d 38d5 8b3d
000001d0: a201 fa3c 5de9 84bc 283c bc3e 9360 333d
000001e0: 2432 f63d 06a0 9dbd 14cd 433d 7fb3 2f3c
000001f0: 2876 d83d 9f3a 343e fa0a 113d 80d9 adbe
00000200: 6841 afbd 0df7 55be c671 af3d 2e7b 743d
00000210: ee4f 783e 0e55 0abf bd85 8dbe a2bf 443f
00000220: 1c6e cb3e 343c 303e 3d34 54be d49e 963f
00000230: b9ee 89bd 77f3 423d 31cb 1c3f 1e71 9ebe
00000240: 0581 9b3e 2579 1fbf b9ef 39bf 68d9 e9be
00000250: b3a1 f83e a46a 75be bedf 02bf 73dd 22be
00000260: 7d93 58be 6a2d 5f3e c3d9 27be 8c48 4dbd
00000270: 9c50 aebd e2e0 d43d fb3d d1be e34f 4a3e
00000280: ba8a 02bf d1aa 083d 8772 073e 3ae3 083f
00000290: b4e5 133f 61a3 703e 315e fdbd 711e b43e
000002a0: 0b91 bf3e 2367 903e 14ba 7fbe 6351 6cbe
000002b0: f866 f7bd 1f6d a93d d2ad 3a3e beef 2ebd
000002c0: bb28 083f ec90 bf3c 4e7e 88bd 06ce bbbe
000002d0: 4848 183f 3d73 5d3e 4ebb 8bbe d811 59bc
000002e0: 6a13 20bd e486 30be 2973 9e3d 1da7 4a3f
000002f0: 16b9 1d3d f554 a23d c118 38be bcf9 0c3c
00000300: 6d30 2b3c b021 8f3f eb6a f0bd 790c a63c
00000310: 88d5 0b3e 6d84 50bd 1c27 693e 6b92 073f
00000320: 48d3 a3be ccf0 24bf 77f5 2e3d da6b 1f3e
00000330: c7b8 3f3e ee66 91be f253 e7bd 234a 5d3d
00000340: ed00 9fbe 9b07 463f 8463 3bbf b64d e1be
00000350: 4113 9fbe 0e1d 723d bce8 a23e eb8f 4ebd
00000360: a881 1b3e 91de 3c3d dc4d 333f 7490 543f
00000370: ad1c 43bd 9056 ccbb 7ab1 c5be b3c9 2abe
00000380: fb60 b33e 2f60 293f 14f7 c7bc fb9b 3c3e
00000390: bd9f 3abe 5ae5 10be 6734 8d3f 1bb3 683f
000003a0: e3be 6dbb 8f77 b4be 6133 d3bc 4ad1 09bf
000003b0: 8bfe 153f a11c 84be fefa c8be 1e24 4abe
000003c0: 1b61 9fbe 943f 90be cb03 b93d df0b cd3f
000003d0: 3b99 3cbd ad56 4dbe 5557 813e 909e 52be
000003e0: f223 bcbb b102 903f

MLP.8.bias f4 [10]
-0.22831227 -0.0099041285 -0.076199114 -0.30717084 -0.042939927 -0.71476406 0.11776646 -0.019605964
0.453588 -0.11301364
00000000: b1ca 69be ed44 22bc 480e 9cbd 7f45 9dbe
00000010: c7e1 2fbd c7fa 36bf 8b2f f13d b09c a0bc
00000020: b03c e83e b273 e7bd

MLP.10.weight f4 [1, 10]
-0.07910681 0.055127364 0.07263804 -0.07173966 -0.09757233 0.16829494 0.071149155 -0.20290107
-0.075011164 -0.71479946
00000000: c002 a2bd 3bcd 613d 41c3 943d 3eec 92bd
00000010: 00d4 c7bd 8255 2c3e a6b6 913d 4cc5 4fbe
00000020: 749f 99bd 19fd 36bf
