Model/Surface/Surface-model.pth (torch, 114433 bytes, 11 tensors)

MLP.0.weight f4 [200, 4]
0	0x3b76688b	0.0037598934
1	0xbf73be3e	-0.9521216
2	0xbe6ac39e	-0.22926185
3	0x3ebe77b5	0.37200704
4	0x3f44be3e	0.76852787
5	0x3addbd9a	0.0016917468
6	0xbcbf1f45	-0.02333034
7	0x3d27497d	0.04084157
8	0x3f855d81	1.041916
9	0xbc50f0ee	-0.012752755
10	0x3e9cec31	0.3064895
11	0xbd6507cb	-0.055915635
12	0x3e0a6f5d	0.13519044
13	0x3e34d167	0.17658006
14	0x3f1f427f	0.6221084
15	0xbf447932	-0.7674743
16	0xbf09f954	-0.5389607
17	0xbc49c03d	-0.0123139
18	0x3ec64481	0.3872414
19	0xbe956bec	-0.291839
20	0x3ee2eafb	0.443199
21	0x3d956238	0.07294124
22	0xbf148f80	-0.58031464
23	0x3ea8130d	0.32827035
24	0x3f084dd9	0.53243786
25	0xbe02ed03	-0.12785725
26	0x3ec38ce8	0.3819344
27	0xbd2d4cce	-0.042309575
28	0x3ccbbc62	0.024870101
29	0x3e00fb4a	0.12595859
30	0x3d8924d8	0.066964805
31	0x3f433509	0.762528
32	0x3a71a437	0.00092178903
33	0xbc88d2a7	-0.01670201
34	0x3f1a494f	0.6026811
35	0xbf4f4baf	-0.8097486
36	0xbab8f4ad	-0.0014111005
37	0xbc958823	-0.018253392
38	0xbe01ff92	-0.12695149
39	0xbf3b5abb	-0.7318532
40	0xbeaace2f	-0.3336043
41	0x3ee36bc4	0.44418156
42	0xbf05865d	-0.5215815
43	0x3ea6dc96	0.3259017
44	0x3f18332c	0.5945308
45	0x3e8447f0	0.25836134
46	0x3e97cecf	0.2964997
47	0xbddc706e	-0.10763632
48	0x3f48ca6c	0.7843387
49	0xbef11ed9	-0.47093847
50	0x3eb6284d	0.35577622
51	0xbf093733	-0.5359985
52	0xbf6024db	-0.87556237
53	0x3aad8fa9	0.0013241667
54	0xbe435d9a	-0.19078675
55	0x3cb74549	0.022371905
56	0x39e304eb	0.00043300478
57	0x39cabeb0	0.00038670516
58	0x39ef80c8	0.00045681582
59	0xba99d8b0	-0.0011737552
60	0x3e29166c	0.1651246
61	0x3d6b0f05	0.05738737
62	0xbe05777f	-0.13033865
63	0x3e530640	0.20607853
64	0x3d11f75c	0.03563629
65	0xba90dd90	-0.0011052359
66	0x3f0f18b3	0.55897063
67	0xbf54c55a	-0.83113635
68	0xbdca9310	-0.09891331
69	0xbd6ca738	-0.05777666
70	0xbfa284f5	-1.2696825
71	0xbd06e7e7	-0.032936003
72	0xba4c9a48	-0.0007804972
73	0xb97ca459	-0.00024093817
74	0xbb43c023	-0.002986916
75	0x3ace338e	0.0015731917
76	0x3d6b571b	0.057456117
77	0x3e1a6886	0.15078935
78	0xbf2cc6ad	-0.67490655
79	0x3f39a13c	0.7251165
80	0xbec032f7	-0.37538883
81	0xbd616046	-0.055023454
82	0x3d7f9e77	0.062406983
83	0xbe1a8d93	-0.15093069
84	0xb6ddee58	-6.61406e-06
85	0xb8a058d1	-7.645938e-05
86	0xb98eccf6	-0.00027237058
87	0x3a3b1b13	0.0007137518
88	0xbf0e9abc	-0.55704856
89	0xbd3fd8d3	-0.04683764
90	0x3c5fc152	0.013656931
91	0xbd1532dd	-0.03642546
92	0xbb9e0ff8	-0.004823681
93	0x3e8c0648	0.27348542
94	0x3f048ada	0.5177437
95	0x3d513936	0.05107995
96	0x3d1e7ee2	0.038695224
97	0x3e80764f	0.25090262
98	0xbead81c4	-0.33888066
99	0x3f1aed09	0.60517937
100	0xbf41c5cd	-0.75692445
101	0x3d678500	0.056523323
102	0xbe4a5523	-0.1975904
103	0x3ebd8389	0.37014416
104	0x3a1ab521	0.0005901624
105	0xba6e3e50	-0.0009088265
106	0xba9592e5	-0.0011411576
107	0xb9b25158	-0.00034011411
108	0xbac0d9da	-0.0014713362
109	0xbafa9c09	-0.0019119988
110	0xbb1209a2	-0.0022283574
111	0xbadc5678	-0.0016810438
112	0xbf4ad81a	-0.79235995
113	0x3ea8e584	0.32987607
114	0xbe80e208	-0.25172448
115	0xbcf15840	-0.029461026
116	0x3f3bafec	0.7331531
117	0x3e05af9c	0.13055271
118	0xbe1ccf19	-0.15313376
119	0x3eb6112e	0.35559982
120	0x3f3503d5	0.7070897
121	0xbc8215e0	-0.015879571
122	0x3df9aef4	0.12191573
123	0xbe4cd678	-0.20003688
124	0xbe556e10	-0.20842767
125	0xbddeea22	-0.10884501
126	0x3e82657e	0.25468057
127	0x3f23e1a9	0.64016205
128	0x3ecd4bd6	0.4009692
129	0xbcc8f723	-0.024531906
130	0x3e4b06f9	0.19826879
131	0x3ea08209	0.3134921
132	0x3924ed07	0.00015728558
133	0xbdbbb01b	-0.09164449
134	0x3f12db64	0.57366014
135	0xbf618faf	-0.8810987
136	0xb9bf70c0	-0.00036514364
137	0xbaad6d09	-0.0013231348
138	0xba12088d	-0.0005570732
139	0x3ab150c5	0.00135281
140	0xbc5d2984	-0.013498668
141	0x3d9ed490	0.07755387
142	0xbf01bdd8	-0.50680304
143	0x3f578dfb	0.8420102
144	0xba9b8f05	-0.0011868185
145	0xbaf9113f	-0.0019002332
146	0xbae35c47	-0.0017346226
147	0x3b1728d8	0.0023065116
148	0x3f03b081	0.514412
149	0xbe6527c1	-0.22378446
150	0x3ebc815a	0.36817437
151	0xbde11821	-0.1099093
152	0x3e18803f	0.14892672
153	0x3d58717a	0.052842595
154	0xbe57c5ce	-0.2107155
155	0x3f27d57b	0.6556012
156	0xbf1e3c5e	-0.61810863
157	0x3c604016	0.013687154
158	0xbed66797	-0.41875908
159	0x3dee88f0	0.116472125
160	0xbe92fa91	-0.28706792
161	0xbec9e66a	-0.39433604
162	0x3e14f005	0.14544685
163	0xbe9a8460	-0.3017912
164	0xbe9c09ac	-0.3047613
165	0xbbddd486	-0.0067697195
166	0x3f0e2a8e	0.55533683
167	0xbf602d12	-0.8756877
168	0xbdc20684	-0.09473899
169	0xbaea64d2	-0.001788283
170	0x3f3745e2	0.7159101
171	0xbf5ad29e	-0.85477626
172	0xbdceebbe	-0.10103558
173	0xbd127794	-0.03575857
174	0xbf2cd020	-0.67505074
175	0x3f289ae7	0.6586136
176	0xbf33f876	-0.70300996
177	0xbd9c3281	-0.0762682
178	0xbe852495	-0.26004472
179	0x3e82a6e9	0.25517967
180	0x3f1c741f	0.61114687
181	0xbdba3fc2	-0.09094192
182	0xbecbba22	-0.39790446
183	0x3ef68555	0.481486
184	0x3e8a06c1	0.26958278
185	0x3db20f2f	0.08694302
186	0x3e836907	0.25666067
187	0xbe9de859	-0.3084133
188	0xbde86217	-0.11346834
189	0x3f3b9783	0.73278064
190	0xbe91b474	-0.28457987
191	0x3e003cf3	0.1252325
192	0x3b5a70fc	0.0033331504
193	0xbc612e39	-0.0137439305
194	0xbe25dee2	-0.16198304
195	0x3f50ab37	0.81511253
196	0xbef173f8	-0.4715879
197	0xbcc82b84	-0.024434812
198	0xbd513726	-0.051077984
199	0x3e712f72	0.23553255
200	0x3cca3a7f	0.024686096
201	0x3e159205	0.14606483
202	0xbf4de3e4	-0.8042586
203	0x3f3da26d	0.7407597
204	0x3f248c33	0.6427643
205	0xbe0ec0f5	-0.13940795
206	0x3e0784a4	0.13234192
207	0xbed433a6	-0.41445655
208	0xbd355136	-0.044266902
209	0x3d480b6d	0.04883902
210	0xbf774a91	-0.96598154
211	0x3f2ca35c	0.67436767
212	0xbf2b5aee	-0.6693562
213	0xbc81fa91	-0.01586655
214	0xbe9b2302	-0.30300146
215	0xbc94e537	-0.018175704
216	0xba96369e	-0.0011460369
217	0xbb05de8c	-0.0020426838
218	0xba534cf2	-0.0008060477
219	0xba5e7e9a	-0.0008487493
220	0xba6d7498	-0.00090582063
221	0x39b9d445	0.00035444103
222	0xb9e99b8d	-0.00044557118
223	0x3a146c12	0.00056618557
224	0xbdd632aa	-0.10458882
225	0x3ccd604f	0.025070338
226	0xbfb6c3ca	-1.42785
227	0x3f0691b2	0.52566063
228	0xbde09176	-0.109652445
229	0xbde11146	-0.10989623
230	0xbe52618f	-0.20545028
231	0xbf0ee109	-0.55812126
232	0x3c153582	0.009106996
233	0xbe8b7cf5	-0.27243772
234	0xbf871d0b	-1.0555738
235	0x3eba0205	0.36329666
236	0xbb3bd1c6	-0.002865897
237	0xbb28cb60	-0.0025755987
238	0xbb1a520f	-0.0023547446
239	0xbb14bf88	-0.002269717
240	0xbf296d7f	-0.661827
241	0x3e95e6a6	0.29277533
242	0xbf02fff8	-0.5117183
243	0x3e8402af	0.25783297
244	0xbb6e30ee	-0.0036345082
245	0xbadb7293	-0.001674252
246	0xb9e77d49	-0.00044153098
247	0x38a04652	7.642493e-05
248	0x3d888e68	0.06667787
249	0x3ecc32c4	0.3988248
250	0xbe9e50cd	-0.3092102
251	0x3e642d03	0.22282796
252	0xbd98e338	-0.074652135
253	0x3d91ecb6	0.07125227
254	0x3f136fbb	0.5759236
255	0xbea65b95	-0.32491747

MLP.0.bias f4 [200]
0	0x3dadc60d	0.08485041
1	0xbf2e5a28	-0.6810632
2	0xbf32d772	-0.69859993
3	0xbd22824c	-0.039675042
4	0x3f23b70d	0.6395119
5	0xbe9af8ee	-0.30268043
6	0xbec74a62	-0.38923937
7	0xbf427a57	-0.75967926
8	0x3e506e9f	0.20354699
9	0x3e536dd6	0.20647368
10	0xbd8099d8	-0.06279343
11	0xbf04b9db	-0.5184609
12	0x3d5467b4	0.05185671
13	0x3eaff6c2	0.3436795
14	0xbb1d19f8	-0.0023971777
15	0xbe9cd352	-0.30629975
16	0x3e6e7980	0.23288536
17	0x3ece064d	0.40239182
18	0xbb68a617	-0.0035499388
19	0xbec756ca	-0.38933402
20	0x3e19d954	0.1502431
21	0xba2d845f	-0.0006619151
22	0x3f1de13c	0.61671805
23	0xbf23ab04	-0.63932824
24	0xbf063142	-0.5241891
25	0x3e1cf4dc	0.15327781
26	0xbaf43b60	-0.0018633418
27	0xbb266876	-0.0025391853
28	0x3e8bebe5	0.2732841
29	0xbee73430	-0.45157003
30	0xbf12f6a4	-0.57407594
31	0xbeec710d	-0.4618
32	0xbf2c1e08	-0.67233324
33	0x3ea87e85	0.32909027
34	0xba89b5e7	-0.0010506482
35	0xbef12092	-0.47095162
36	0xbb7620be	-0.0037556137
37	0xbe1162be	-0.14197823
38	0xbf198313	-0.5996563
39	0x3ef0911d	0.46985713
40	0x3ec91337	0.39272472
41	0x3ed959c9	0.42451313
42	0x3e862aba	0.26204473
43	0xbe2ded10	-0.16984963
44	0x3f392a35	0.7233003
45	0xbef88c01	-0.48544315
46	0xbe83a32f	-0.25710437
47	0xbed2c63f	-0.41166875
48	0xbf28f9b5	-0.6600602
49	0x3e1d68a3	0.15371947
50	0xbea53c2a	-0.32272464
51	0xbe951e49	-0.29124668
52	0xbe334db6	-0.17510113
53	0x3ef6e30c	0.48220098
54	0xba545ed3	-0.0008101288
55	0xba8c49ff	-0.0010703205
56	0x3e17096e	0.14749691
57	0x3ee8149a	0.45328218
58	0x3dc89126	0.0979331
59	0xbb54a6fa	-0.0032448159
60	0x3dcf57df	0.10124182
61	0xba9a89f6	-0.0011790383
62	0xbecedfd2	-0.40405136
63	0xbe3fa42b	-0.18714969
64	0x3e93d9da	0.28877145
65	0x3e36f73b	0.17867748
66	0xbed64ecd	-0.41856995
67	0x3eadd381	0.33950427
68	0xbead605a	-0.33862573
69	0x3e57b42a	0.21064821
70	0xbe5bc226	-0.2146078
71	0x3e959ed1	0.2922273
72	0x3ed8cfda	0.42346078
73	0xbeca2695	-0.3948256
74	0xbedc5628	-0.43034482
75	0xbade6aba	-0.0016969063
76	0xbe32a5b1	-0.17446019
77	0x3efe54e1	0.49674132
78	0x3f2f1a40	0.6839943
79	0x3f1c8324	0.61137605
80	0xbec5158c	-0.38493
81	0x3eb84cde	0.35996145
82	0xbdf8a766	-0.12141304
83	0x3ee20f79	0.4415243
84	0x3d2e31b8	0.042527884
85	0xbf14b229	-0.5808435
86	0x3e9447c7	0.28961012
87	0x3df6bbd5	0.12047545
88	0xbf1122ee	-0.56693923
89	0x3ed85b71	0.42257264
90	0xbac7fb5c	-0.0015257406
91	0x3e16e161	0.14734413
92	0x3e4491ff	0.19196318
93	0xbf1969f7	-0.59927315
94	0xbf0486e1	-0.5176831
95	0xbefaf959	-0.49018362
96	0xba341f53	-0.0006871123
97	0x3f0aa65c	0.54160094
98	0x3f0c4f01	0.5480805
99	0xbeac0003	-0.3359376
100	0xbec9d7ee	-0.39422554
101	0x3ec8522b	0.3912519
102	0x3ef13642	0.47111708
103	0x3da6cd5e	0.081446394
104	0xbe72d297	-0.23713146
105	0x3ed3efdc	0.41393936
106	0xbe3c49d7	-0.18387543
107	0xbecd9fe2	-0.40161043
108	0xbeeec72e	-0.46636337
109	0xbf1f909b	-0.62330025
110	0x3e78dac2	0.243022
111	0xbaf71c2b	-0.0018852999
112	0x3e32aec8	0.17449486
113	0xbd9d1ddf	-0.07671713
114	0x3f0998de	0.5374888
115	0xbde57369	-0.11203653
116	0x3e0f05ed	0.13967104
117	0x3e817576	0.25284928
118	0xbb792452	-0.0038016033
119	0x3e4064f6	0.18788514
120	0xbf42c34d	-0.76079255
121	0x3f070e0d	0.52755815
122	0xbd0a6ad3	-0.03379328
123	0xbf090c54	-0.53534436
124	0x3d387034	0.04502888
125	0x3dab634d	0.083685495
126	0x3ec5db73	0.3864399
127	0xbde2b118	-0.11068934
128	0xbed7e36b	-0.42165694
129	0xbee6d704	-0.4508592
130	0xbb3e9bf0	-0.0029084645
131	0xbec4e66e	-0.38457054
132	0x3e8807c5	0.26568428
133	0x3e4485a2	0.19191602
134	0xba13be3c	-0.0005635952
135	0x3f22b0c5	0.6355098
136	0x3eebfcdf	0.46091363
137	0xbecdc7a0	-0.40191364
138	0x3f12c504	0.5733187
139	0xbe7b68f4	-0.24551755
140	0x3f0f61dc	0.56008697
141	0xbf0ef2a9	-0.5583902
142	0xbbd3c4f3	-0.006462687
143	0x3d3318d2	0.043724842
144	0xb94d4d48	-0.00019579113
145	0xbf23f7d5	-0.64050037
146	0x3e31cbd6	0.17362913
147	0xbf1a2969	-0.60219437
148	0x3ef110ba	0.47083074
149	0xbf026c63	-0.50946635
150	0x3f100d45	0.5627025
151	0x3ea743d2	0.3266893
152	0xbefdddf9	-0.49583414
153	0x3db996b9	0.09061951
154	0x3e245855	0.16049321
155	0x3ee6ed0b	0.45102724
156	0x3e66de5e	0.22545764
157	0xbefa8834	-0.4893204
158	0xbf140b41	-0.5782967
159	0x3e82dd8f	0.2555966
160	0xbe9a7541	-0.30167583
161	0x3e8476cb	0.25871882
162	0xbb158e53	-0.0022820428
163	0xbe7fcaa0	-0.24979639
164	0xbe7d1012	-0.24713162
165	0xbaaf9d62	-0.0013398344
166	0x3f16b4c2	0.58869565
167	0x3d359afe	0.044337265
168	0xbaaec7f0	-0.0013334733
169	0xbf16f1c9	-0.58962685
170	0x3e2f5ff0	0.17126441
171	0xba4c7672	-0.0007799632
172	0xbf230b6e	-0.63689315
173	0x3ea66bac	0.32504022
174	0xba4fded9	-0.000792963
175	0xbebd29fb	-0.3694609
176	0x3c28e5e4	0.010308716
177	0x3eb8d459	0.36099508
178	0xbf215a96	-0.6302885
179	0xbeb3ee4d	-0.35142747
180	0x3d0480a7	0.032349255
181	0x3e03d811	0.12875392
182	0xbd925a37	-0.07146113
183	0xbe0570c8	-0.13031304
184	0x3ebc982b	0.36834845
185	0xbec4b96b	-0.38422713
186	0xb9bbcd76	-0.000358205
187	0x3e623529	0.22090591
188	0xbb63fd84	-0.0034788558
189	0xbeb6ffc6	-0.35742015
190	0xbd79f21b	-0.061021905
191	0xbeff4cde	-0.49863333
192	0xbb35bf5c	-0.0027732467
193	0x3e93cf76	0.28869218
194	0x3e9d56bb	0.30730233
195	0xbe4bb545	-0.19893368
196	0x3d4998df	0.049218055
197	0x3d007431	0.03136081
198	0xbe5f3d80	-0.21800804
199	0x3ecedfc3	0.40405092

MLP.2.weight f4 [100, 200]
0	0xbf0b1459	-0.54327923
1	0xbe1c9cdd	-0.15294214
2	0x3fd15449	1.6353847
3	0xbf3efb70	-0.74602413
4	0x3e862dd8	0.2620685
5	0x3ef52ed3	0.47887287
6	0xbf152335	-0.58256847
7	0x3e461c1e	0.19346663
8	0xbed19d63	-0.4094039
9	0x3e607f8a	0.21923652
10	0xbc4bde7f	-0.012443184
11	0x3ddc3710	0.1075269
12	0xbe596c4b	-0.21232717
13	0x3e0e55ae	0.13899872
14	0x3b57c59e	0.0032924186
15	0xbd33a893	-0.043861937
16	0xbeed0723	-0.46294507
17	0xbe9e3057	-0.30896255
18	0x3b7cfb26	0.0038601845
19	0xbfba67c6	-1.4562919
20	0x3d0b07ad	0.033942867
21	0x3ba4a449	0.005024467
22	0x3d49c665	0.04926147
23	0x3e49bc82	0.19700816
24	0xbf08eb47	-0.53484005
25	0x3e7f703c	0.24945158
26	0x3c9e463c	0.0193206
27	0x3abea5d0	0.0014545266
28	0x3f1b7489	0.60724694
29	0x3e05f697	0.13082348
30	0x3e978e35	0.29600683
31	0xbf030a3b	-0.51187485
32	0x3e251f58	0.16125238
33	0xbf54730f	-0.82988065
34	0xbbb9402b	-0.0056534014
35	0xbf14cf3a	-0.581287
36	0x3c367b32	0.0111377705
37	0xbe0383d7	-0.12843262
38	0xbf752652	-0.957616
39	0xbe930d7d	-0.28721228
40	0x3f382cb2	0.719432
41	0x3f4147c6	0.7550014
42	0x3f21ba36	0.6317476
43	0x3da97aa1	0.08275343
44	0xbe3cdbb4	-0.18443185
45	0xbfebd09e	-1.842304
46	0xbb8a51c8	-0.004221175
47	0xbf052a5c	-0.5201776
48	0xbf4dafb0	-0.803462
49	0xbd5a586c	-0.053306982
50	0xbfcaa411	-1.5831319
51	0xbfd188a0	-1.636982
52	0xbe2602e3	-0.16212039
53	0xbe27c478	-0.1638354
54	0xbc26aa27	-0.010172403
55	0xbbb087a7	-0.005387265
56	0xbea26091	-0.317143
57	0xbebb2c97	-0.36557457
58	0x3e20927e	0.15680882
59	0xbc01a868	-0.007913686
60	0xbd718a64	-0.05896987
61	0x3c893f28	0.016753748
62	0x3f9e15f4	1.235045
63	0xbeb84781	-0.35992053
64	0x3f8c363e	1.0954053
65	0x3eee64da	0.4656132
66	0xbeb6807d	-0.35644904
67	0xbdd1b6b2	-0.102399245
68	0xbf454b03	-0.77067584
69	0xbf437daa	-0.76363623
70	0xbe08955f	-0.1333823
71	0xbf1cb8f9	-0.61219746
72	0xbd2980fd	-0.04138278
73	0x3e5f323a	0.21796504
74	0xbe81be7e	-0.25340647
75	0x3c247e63	0.010039899
76	0xbdffbf07	-0.124876074
77	0x3e9ad4ea	0.30240566
78	0xbdc6b30f	-0.097021215
79	0xbc84c97d	-0.016209358
80	0xc01a772d	-2.413524
81	0x3c449178	0.011997573
82	0xbeb064be	-0.3445186
83	0x3daf975f	0.085737936
84	0xbe2fa1ac	-0.17151517
85	0x3d1f280d	0.038856555
86	0xbec0f424	-0.37686265
87	0x3faa2187	1.3291482
88	0xbec90fa9	-0.3926976
89	0x3f0a69c5	0.5406764
90	0xbbbc90f5	-0.005754585
91	0x3de18530	0.110117316
92	0x3f39060e	0.72274864
93	0xbf6f77a2	-0.9354192
94	0xbe45af01	-0.1930504
95	0xbfa04090	-1.2519703
96	0x3c2ad62a	0.010427037
97	0x3e07ffd9	0.13281192
98	0xbe697f13	-0.22802381
99	0x3f1a26d4	0.60215497
100	0xbe036d56	-0.12834677
101	0xbea8f130	-0.3299651
102	0xbf68b57d	-0.9090193
103	0x3e88e138	0.26734328
104	0x3e9fd800	0.31219482
105	0xbf9cb45d	-1.2242543
106	0x3eaf199c	0.34199226
107	0xbd92a62d	-0.07160602
108	0x3e818f7a	0.25304776
109	0xbe0d1f41	-0.13781454
110	0xbe090278	-0.13379848
111	0x3aabeef2	0.0013117476
112	0xbfa11069	-1.2583133
113	0xbf1f7f86	-0.6230396
114	0xbe565770	-0.20931792
115	0x3e6866b8	0.22695434
116	0xbf8f8145	-1.1211325
117	0x3e3dd702	0.1853905
118	0xbc497640	-0.012296259
119	0x3e9673c7	0.29385206
120	0xbf1fc1ab	-0.6240489
121	0xbe1a97eb	-0.15097015
122	0xbdddce60	-0.108303785
123	0xbff613aa	-1.9224751
124	0x3f6c7df9	0.9237972
125	0xbedfbd26	-0.43698996
126	0xbfb56393	-1.4171013
127	0x3f9d31ae	1.2280786
128	0x3c8ef732	0.017451856
129	0xbf227c68	-0.6347108
130	0xbb5a330a	-0.0033294582
131	0xbe53ade0	-0.20671797
132	0x3d40eb0e	0.047099166
133	0x3df8d2ef	0.121496074
134	0x3c2335c0	0.0099615455
135	0x3e6e1d0f	0.23253272
136	0x3e71d8e6	0.23617896
137	0xbcca2343	-0.024675017
138	0x3c93bccf	0.018034367
139	0xbe61f54e	-0.22066233
140	0x3f4cb139	0.7995792
141	0xbf519027	-0.81860584
142	0xbb433c2b	-0.0029790502
143	0xbf57ec59	-0.8434501
144	0x3b418d0a	0.0029533529
145	0xbf877427	-1.0582322
146	0xbe87e17d	-0.2653922
147	0x3e69da86	0.22837266
148	0x3dc254b4	0.09488812
149	0xbf250323	-0.6445791
150	0xbdad8087	-0.0847178
151	0x3f15711e	0.5837573
152	0xbe30d1e8	-0.17267573
153	0xbee1dcc7	-0.44113752
154	0x3f8214f6	1.0162647
155	0x3ddf9411	0.10916913
156	0xbe13e044	-0.1444102
157	0xbdf163ee	-0.11786638
158	0x3f65db2f	0.8978757
159	0x3f8f1ae6	1.1180084
160	0xbe431a68	-0.19053042
161	0x3da26db4	0.079310805
162	0x3b493483	0.0030701465
163	0x3e43e1ee	0.19129154
164	0xbfa18cd1	-1.2621099
165	0x3baaff34	0.005218411
166	0x3ec7b577	0.39005634
167	0x3d7c9ecb	0.061674874
168	0xbabca44a	-0.0014392224
169	0xbe10561b	-0.14095347
170	0x3fc1e787	1.5148782
171	0xbb9b815a	-0.0047456445
172	0xbde7f06f	-0.11325156
173	0xbf26fd56	-0.6523031
174	0x3a97ecb3	0.0011590928
175	0x3defe4b2	0.11713542
176	0x3f486ee5	0.7829421
177	0x3e587f95	0.21142419
178	0xbd3f506c	-0.046707556
179	0xbf213160	-0.62965965
180	0xbdb9acbf	-0.09066152
181	0xbdd6a28f	-0.10480224
182	0xbd1012ec	-0.035174295
183	0xbeeb5aee	-0.4596781
184	0x3f33caa0	0.70231056
185	0xbf332574	-0.69979024
186	0xbb0420bb	-0.002016111
187	0x3f89635b	1.0733446
188	0x3c977e12	0.018492732
189	0x3d08e039	0.03341696
190	0xbdc100b3	-0.094239615
191	0x3e8c2114	0.27368987
192	0xba39c714	-0.0007086855
193	0x3dac793e	0.084215626
194	0x3ee95bf8	0.4557798
195	0xbf71dbdc	-0.94476104
196	0x3ee19541	0.44059184
197	0xbec30661	-0.38090804
198	0x3ce7c08f	0.028290061
199	0xbe64cca7	-0.22343694
200	0xbdcc0e41	-0.09963656
201	0xbee7b8dd	-0.45258227
202	0xc02269a1	-2.537697
203	0x3e0c785a	0.13717785
204	0x3c87edff	0.016592978
205	0x3d5294ea	0.051411547
206	0xbd4143ab	-0.047183674
207	0x3e552988	0.20816624
208	0x3e39634f	0.1810429
209	0x3e96927c	0.29408634
210	0xbe00fae2	-0.12595704
211	0xbeeb525e	-0.4596128
212	0xbe919b63	-0.28438863
213	0x3ead3bbc	0.33834636
214	0x3caadc66	0.020857047
215	0x3dd3324e	0.10312329
216	0x3c945971	0.018109055
217	0xbd12272e	-0.035681896
218	0x3d2003a5	0.039065976
219	0x3f2bc778	0.6710124
220	0x3ddaae40	0.10677767
221	0x3a6c6e54	0.0009019126
222	0x3df2d246	0.11856513
223	0x3b293a41	0.0025822076
224	0xbe19d278	-0.15021694
225	0xbd53439a	-0.05157814
226	0xbd14dbd2	-0.03634245
227	0x3be6424c	0.007026946
228	0xbe71172e	-0.23543999
229	0xbea7d57e	-0.3278007
230	0xbe2fb368	-0.17158282
231	0xbe35be05	-0.17748268
232	0xbe27143c	-0.16316313
233	0x3eb59814	0.3546759
234	0xbc8ad075	-0.016945103
235	0x3e9571b2	0.29188305
236	0x3ccf6b80	0.025319815
237	0xbdf6d78c	-0.12052831
238	0x3d68d41f	0.05684292
239	0x3e438ef7	0.19097506
240	0x3c8d650a	0.017260093
241	0xbe651316	-0.22370562
242	0xbebdca18	-0.37068248
243	0xbd3fd2fc	-0.04683207
244	0x3e862fb7	0.2620828
245	0xbd2ad08a	-0.041702785
246	0x3d8cc5aa	0.06873639
247	0x3e7e99d4	0.24863368
248	0xbd8e4a18	-0.06947726
249	0xbdb6bb09	-0.08922393
250	0xbeab294d	-0.33429947
251	0xbe25c5c6	-0.16188726
252	0xbdc76f7a	-0.09738059
253	0x3d93091b	0.07179471
254	0xbd151f5b	-0.036406856
255	0x3cee77cf	0.029109864

MLP.2.bias f4 [100]
0	0xbdfa8693	-0.12232699
1	0x3cf9d93b	0.030499091
2	0xbd01d6a1	-0.031698827
3	0xbeeffc0a	-0.46871978
4	0xbe938ae1	-0.28816894
5	0x3d81eab2	0.06343593
6	0xbe6c81e7	-0.23096429
7	0xbe14d8b6	-0.14535794
8	0x3e2cf22a	0.16889253
9	0x3c3ff403	0.011715892
10	0xbb32646f	-0.0027220508
11	0x3d759ba1	0.059962872
12	0xbe8051c9	-0.25062397
13	0xbe94dd84	-0.29075253
14	0x3e8b36e2	0.2719031
15	0xbe6abf8b	-0.2292463
16	0xbcf95251	-0.03043476
17	0xbd9543d6	-0.07288329
18	0x3d13b199	0.036058042
19	0x3e0032f2	0.12519434
20	0xbe3b7e70	-0.18309951
21	0xbc780d6e	-0.015139921
22	0xbea8a6df	-0.32939813
23	0x3dca6986	0.09883408
24	0xbe51c997	-0.20487057
25	0xbe33b413	-0.17549162
26	0x3daef107	0.08542066
27	0x3d5a5e21	0.053312425
28	0x3e36e931	0.17862393
29	0xbde96b35	-0.11397401
30	0xbe32b35c	-0.17451233
31	0xbf1800f5	-0.5937646
32	0xbf1c07ff	-0.609497
33	0xbddcf42e	-0.10788761
34	0xbe1c9f30	-0.152951
35	0xbe36f4fb	-0.1786689
36	0x3d6a3e3a	0.05718825
37	0xbe772bac	-0.24137753
38	0xbe28d560	-0.16487646
39	0xbe688b7f	-0.22709464
40	0xbcea15aa	-0.028574783
41	0xbea2dfc9	-0.3181136
42	0xbc8487db	-0.016178062
43	0x3be0ec50	0.006864108
44	0xbe47285d	-0.19448991
45	0xbb926880	-0.004468024
46	0xbe71afb2	-0.23602179
47	0xbe833c9a	-0.25632173
48	0xbeccf46c	-0.4003023
49	0xbca88887	-0.020572914
50	0xbe3c1bac	-0.18369931
51	0xbd2c8372	-0.042117544
52	0x3e38716f	0.18012021
53	0xbe4227cd	-0.18960495
54	0xbdd9afd1	-0.106292374
55	0xbeab6997	-0.33478996
56	0xbd4c907f	-0.04994249
57	0xbe7bf2b0	-0.24604297
58	0xbdef86aa	-0.11695607
59	0xbd19a6d9	-0.037512634
60	0xbe58acfb	-0.21159737
61	0x3b47ab8c	0.003046724
62	0xbe0712f5	-0.13190825
63	0xbdfb8b05	-0.12282375
64	0x3e114a73	0.14188556
65	0xbe25fbed	-0.16209383
66	0xbe1c5ebb	-0.15270512
67	0x3ddc5b49	0.10759599
68	0xbe948846	-0.29010218
69	0x3d9ad2b3	0.07559719
70	0x3e3eec8d	0.18644924
71	0xbd44a9e9	-0.0480136
72	0xbd9f9674	-0.077923685
73	0x3df4f117	0.11960047
74	0xbe9ad3bd	-0.30239668
75	0x3dcfe5d4	0.10151258
76	0xbe638f7b	-0.22222702
77	0xbc6b212b	-0.01435117
78	0xbdaeadc3	-0.08529236
79	0xbe9e386b	-0.30902418
80	0xbee98142	-0.45606428
81	0x3c1abead	0.009444875
82	0xbeab2c68	-0.33432317
83	0x3e617a3d	0.22019286
84	0xbecf9fb8	-0.40551543
85	0x3db7cf50	0.089750886
86	0x3e4fa20d	0.20276661
87	0xbdfd5231	-0.123691924
88	0xbea80dd7	-0.3282306
89	0xbe3c71fb	-0.18402855
90	0xbf14e338	-0.5815921
91	0xbe54f533	-0.20796661
92	0xbd5dfc99	-0.054195974
93	0xbdfa82ee	-0.12232004
94	0xbe8e7845	-0.27826133
95	0x3d4bbf51	0.049743
96	0x3d1a32e8	0.037646204
97	0x3d967d86	0.073481604
98	0xbdb8caa4	-0.09023026
99	0xbe6d7b96	-0.23191676

MLP.4.weight f4 [50, 100]
0	0xbe8e0177	-0.27735493
1	0xbe698ef6	-0.22808442
2	0x3e34689c	0.1761803
3	0xbe526135	-0.20544894
4	0x3e20e667	0.15712892
5	0x3f0a1c03	0.5394899
6	0xbecfb4c6	-0.40567607
7	0x3f1e7a57	0.61905426
8	0xbeeafcdf	-0.4589605
9	0xbebc29c6	-0.3675062
10	0xbeea1107	-0.45716116
11	0xbe6abb3c	-0.22922987
12	0xbd8710d9	-0.0659501
13	0x3fa9bfce	1.3261659
14	0xbe3f3d33	-0.1867569
15	0x3f15262b	0.58261365
16	0xbda006b5	-0.07813779
17	0x3df79f48	0.12090927
18	0xbfc65281	-1.5493928
19	0x3e6e505d	0.23272844
20	0xbee68d53	-0.45029697
21	0x3dd0a441	0.10187579
22	0x3f006112	0.5014812
23	0xbeb60389	-0.35549572
24	0x3d58bd0f	0.052914675
25	0xbe8e503a	-0.27795583
26	0x3de6f141	0.11276484
27	0xbe987947	-0.29780027
28	0x3f01ca41	0.5069924
29	0xbde7f3c8	-0.113257945
30	0x3e3e3cf9	0.18577947
31	0xbe82ffe3	-0.2558585
32	0xbebe6346	-0.37185115
33	0x3f4c4369	0.7979036
34	0xbd994312	-0.07483496
35	0xbba192c3	-0.0049308254
36	0x3f174a7b	0.59098023
37	0x3e39b88f	0.1813681
38	0xbde2f48f	-0.11081802
39	0x3cf79621	0.030222954
40	0x3f07638e	0.52886283
41	0xbf008b97	-0.50213
42	0xbf5dd023	-0.86645716
43	0x3f59eb6a	0.8512484
44	0x3ef48159	0.47754934
45	0xbfe07f6d	-1.7538887
46	0x3d920a0f	0.07130825
47	0x40240d45	2.56331
48	0x3ee71c7a	0.45138913
49	0xbcc4f6e7	-0.024043513
50	0xbedee73c	-0.43535793
51	0x3f3c95c5	0.7366603
52	0xbf59b9d2	-0.85049164
53	0xbee82239	-0.4533861
54	0xbdcd1807	-0.100143485
55	0x3f94eeaf	1.163534
56	0xbe6315ac	-0.22176236
57	0xbcf04594	-0.029330052
58	0x3f16c1cd	0.58889467
59	0x3e8400c8	0.25781846
60	0x3fa92fb2	1.321768
61	0xbf4717dd	-0.7777079
62	0xbf756273	-0.95853347
63	0x3f38aef8	0.7214198
64	0x3da6554a	0.08121736
65	0x3ed62233	0.41822967
66	0xbc891106	-0.01673175
67	0xbfaa3c80	-1.3299713
68	0xbdd1e3de	-0.1024854
69	0xbd854458	-0.06507176
70	0x3f14b7a9	0.58092743
71	0xbd0dc3de	-0.03461062
72	0x3e5bdc53	0.21470766
73	0xbe91aff5	-0.28454557
74	0x3e9e3eb5	0.30907217
75	0xbf216d42	-0.6305734
76	0x3e2ad20c	0.16681689
77	0x3d59461e	0.053045385
78	0xbe349619	-0.17635383
79	0x3e8376d8	0.25676608
80	0xbd3fe70d	-0.046851207
81	0x3df57e41	0.11986972
82	0x3e8938c9	0.26801136
83	0x3e604078	0.21899593
84	0xbe1a2d79	-0.15056409
85	0xbcb3edeb	-0.021964034
86	0xc06558df	-3.5835493
87	0xbdd3b840	-0.10337877
88	0xbec6dbf9	-0.388397
89	0xbda8784c	-0.0822607
90	0xbc1e86d6	-0.009675702
91	0xbee48190	-0.44630098
92	0x3ecd8763	0.40142354
93	0x3f2f377d	0.68444043
94	0x3f2d3d33	0.6767151
95	0xbd807745	-0.06272749
96	0x3bc884e5	0.006119358
97	0x3e16a599	0.14711608
98	0x3dbd73f0	0.09250629
99	0x3dba4052	0.090942994
100	0x3f26014b	0.6484572
101	0xbd476930	-0.0486843
102	0xbf61c425	-0.8818992
103	0xbdeff004	-0.11715701
104	0x3c0b026b	0.008484463
105	0xbf00978b	-0.50231236
106	0xbe1a2c66	-0.15055999
107	0x3f614e59	0.88010174
108	0xbf8f7411	-1.1207296
109	0x3faaec37	1.3353337
110	0xbf2c1a01	-0.6722718
111	0xbe478e50	-0.19487882
112	0x3d6525f7	0.05594441
113	0xbe83168e	-0.25603145
114	0x3e98c26d	0.29835835
115	0x3c6cfaa7	0.014464057
116	0xbe8effe0	-0.27929592
117	0x3ea9725e	0.33095068
118	0xbe9e33e2	-0.30898958
119	0x3ee52833	0.44757232
120	0xbea54c67	-0.32284853
121	0xbfaff3bf	-1.374626
122	0xbe36adc7	-0.17839728
123	0xbea25e32	-0.3171249
124	0xbed96b42	-0.42464644
125	0xbfa61aa4	-1.297688
126	0xbe7fa677	-0.24965845
127	0xbf4ac550	-0.79207325
128	0x3ee0df8a	0.43920547
129	0xbfadcbdd	-1.3577839
130	0xbf6e9b2a	-0.9320551
131	0xbd917423	-0.071022294
132	0x3e22bd16	0.15892443
133	0x3d6c7b00	0.05773449
134	0x3d08ea15	0.033426363
135	0xbe01dd8d	-0.12682171
136	0x3a9d79d0	0.0012014452
137	0x3f066325	0.5249503
138	0x3ed9e14c	0.425547
139	0x3e439070	0.19098067
140	0xbed796e8	-0.4210732
141	0xbec0839a	-0.37600404
142	0xbe8033c1	-0.25039485
143	0x3f9e3835	1.2360903
144	0x3ea3d652	0.3199945
145	0xbecda33c	-0.401636
146	0xbe7f1184	-0.24909025
147	0xbdbba46b	-0.091622196
148	0x3e6559eb	0.22397582
149	0xbe228ea4	-0.15874726
150	0xbdda20fa	-0.10650821
151	0x3dca6430	0.098823905
152	0x3f0f13ad	0.558894
153	0x3d64e9cf	0.05588704
154	0x3d89c1e8	0.06726438
155	0xbd8b3a8f	-0.067982785
156	0x3e088c27	0.13334714
157	0xbe350f8d	-0.17681713
158	0xbecfa845	-0.40558067
159	0xbd6b0207	-0.05737498
160	0x3fa1d1bc	1.2642131
161	0x3e837b8e	0.25680202
162	0x3f95ae33	1.1693786
163	0xbe90cb80	-0.28280258
164	0x3eed9022	0.46399027
165	0x3e304ee1	0.1721759
166	0xbed0a2cd	-0.40749207
167	0x3e6a66da	0.22890797
168	0x3dec1d2f	0.11529004
169	0xbf0adf4d	-0.5424698
170	0xbe3c3bf2	-0.18382242
171	0x3e62b700	0.22140121
172	0xbeaf0c09	-0.3418887
173	0x3ecc33c5	0.39883247
174	0xbf3944dc	-0.72370696
175	0xbf82e3fe	-1.0225828
176	0xbf1843d3	-0.5947849
177	0x3f89d6ea	1.0768712
178	0x3f9287c7	1.1447686
179	0xbed20b25	-0.41024128
180	0x3eb0fc88	0.34567666
181	0xbee0ccb0	-0.43906164
182	0x3fd13fd7	1.6347607
183	0x3f13ff8d	0.57811815
184	0xbe6f9f02	-0.234005
185	0xbcefd44c	-0.029276036
186	0xbf1e703c	-0.61890006
187	0xbd611d9d	-0.054959882
188	0x3e1d3afa	0.15354529
189	0xbe89bbb1	-0.2690101
190	0x3d12b65f	0.035818454
191	0xbe0d6db8	-0.13811386
192	0x3f327cf6	0.69721925
193	0x3f351c9a	0.7074677
194	0xbe9ae058	-0.30249286
195	0xbf865130	-1.0493526
196	0xbf3c281b	-0.73498696
197	0xbed41f34	-0.41430056
198	0x3e0d2fbc	0.1378774
199	0xbd3b1b8c	-0.045680568
200	0x3eb908cb	0.3613952
201	0xbefba92a	-0.491525
202	0x3d636a0e	0.055521064
203	0xbee385a7	-0.44437906
204	0x3e9fc432	0.31204373
205	0xbeb87f24	-0.360345
206	0x3e4decea	0.20109907
207	0xbfe72b7c	-1.8060145
208	0x3fa6312d	1.2983757
209	0xbeaa375f	-0.3324537
210	0xbe800dac	-0.2501043
211	0x3c6c79a2	0.014433296
212	0x3dcc558d	0.09977255
213	0xbf194364	-0.59868455
214	0x4058b86c	3.3862562
215	0x3f053d97	0.52047104
216	0xbe5fef6a	-0.21868673
217	0xbcd9b0d6	-0.02657358
218	0x40317e07	2.773317
219	0x3c723d94	0.014785189
220	0x3ec7c27f	0.39015576
221	0xbe36cad3	-0.17850809
222	0xbf05a0c5	-0.5219844
223	0xbea42c1b	-0.320649
224	0x3e836f38	0.2567079
225	0x3e5cdbfe	0.21568295
226	0xbfc4f3cc	-1.5386901
227	0x3e552ce4	0.20817906
228	0x3b55743a	0.0032570497
229	0x3f8bfeb0	1.09371
230	0xbf85447f	-1.0411528
231	0x3e5ff80e	0.21871969
232	0xbf8bff85	-1.0937353
233	0xbec817b2	-0.39080578
234	0xbe8f841d	-0.28030482
235	0x3e2e1d7a	0.17003432
236	0x3faf3e85	1.3690954
237	0xbf4e5741	-0.8060189
238	0x3ea8b354	0.32949317
239	0xbe22c904	-0.15896994
240	0xbf0c34bc	-0.54767966
241	0x3e441292	0.19147709
242	0x3f20d781	0.6282883
243	0xbf1b8695	-0.6075223
244	0x3f20ff3b	0.6288945
245	0xbf626167	-0.88429874
246	0xbc586ccc	-0.013209533
247	0xc000e75c	-2.014121
248	0x3c216a86	0.009852057
249	0xbf41221e	-0.75442684
250	0x3ca6d301	0.020364286
251	0x3ef7d4ee	0.4840464
252	0x404795a5	3.1185086
253	0xbdfeeddd	-0.124477126
254	0xbe87d45e	-0.2652921
255	0xbf59124a	-0.8479353

MLP.4.bias f4 [50]
0	0xbd787f10	-0.06066805
1	0xbe1a8e94	-0.15093452
2	0xbf029fb1	-0.5102492
3	0x3dfaf57a	0.12253852
4	0xbec7cb89	-0.39022473
5	0x3edfe352	0.4372812
6	0xbe3f4be3	-0.18681292
7	0x3c889c5d	0.016676122
8	0xbebebd04	-0.37253582
9	0xbe7a9230	-0.24469829
10	0xbe911407	-0.28335592
11	0xbe8030a7	-0.2503712
12	0xbebfd3fe	-0.37466425
13	0x3df7ef3a	0.12106176
14	0x3f155989	0.58339745
15	0x3eabc716	0.33550328
16	0xbe562b68	-0.20914996
17	0xbdaea774	-0.08528033
18	0xbea9943f	-0.33120915
19	0xbe410adc	-0.18851799
20	0xbdab9e18	-0.08379763
21	0xbd35de90	-0.044401705
22	0xbe49d952	-0.19711807
23	0xbd6e8616	-0.058233343
24	0xbe8064b1	-0.2507682
25	0xbda9f256	-0.08298175
26	0x3dbbbe69	0.09167177
27	0xbd12bee1	-0.035826568
28	0xbe882567	-0.26591036
29	0xbd0ae815	-0.033912737
30	0xbe56e5cb	-0.20986097
31	0xbdd574ba	-0.104226544
32	0xbe68dc2f	-0.22740243
33	0xbd83ce8e	-0.064358816
34	0xbde381e8	-0.11108762
35	0xbd8a8b2c	-0.06764826
36	0xbd33fe45	-0.043943662
37	0x3f2d5e92	0.6772243
38	0x3d6630ff	0.05619907
39	0xbe6e92b6	-0.23298153
40	0xbe5f7525	-0.21822031
41	0xbf3387a8	-0.7012887
42	0xbc42ffb1	-0.011901782
43	0xbe5adbbf	-0.21372889
44	0x3de984e6	0.114023015
45	0xbdc999cc	-0.098437876
46	0x3d757a0a	0.05993084
47	0xbd817db4	-0.06322804
48	0xbeb568e1	-0.3543158
49	0xbed962dd	-0.4245824

MLP.6.weight f4 [25, 50]
0	0x3e93f9dd	0.28901568
1	0x3cfcc21e	0.030854281
2	0x3e8672f4	0.26259577
3	0x3e0fdca4	0.14049011
4	0xbeaf1588	-0.34196115
5	0x3e8bfb99	0.2734039
6	0xbe7b8813	-0.24563627
7	0x3e6d118e	0.23151228
8	0xbdaf2a68	-0.0855301
9	0xbb9077d6	-0.004408817
10	0xbe2d0209	-0.16895308
11	0x3d0be15e	0.034150474
12	0xbe0fdfec	-0.14050263
13	0xbe0d7afe	-0.13816449
14	0x3edb1b4d	0.42794266
15	0xbe58f3d7	-0.21186768
16	0xbeb8265a	-0.3596676
17	0xbde074d4	-0.10959783
18	0x3ed37cca	0.41306144
19	0xbdd48d3e	-0.10378502
20	0xbd88a7ce	-0.06672631
21	0x3f0489aa	0.5177256
22	0x3f03e7b4	0.51525426
23	0xbd82ced4	-0.063871056
24	0x3f193404	0.59844995
25	0x3c7e32ba	0.015515024
26	0x3e22f168	0.15912402
27	0xbd8a8b35	-0.06764833
28	0xbc06439a	-0.008194828
29	0x3ec89521	0.39176276
30	0xbed35a9d	-0.4128007
31	0x3d9292f0	0.07156932
32	0x3d073264	0.03300704
33	0xbd986cc1	-0.07442618
34	0x3e271d42	0.16319755
35	0xbe9cd012	-0.30627495
36	0xbf87a7d6	-1.0598094
37	0xbd009eae	-0.03140133
38	0xbd20c8c5	-0.03925397
39	0xbe022c31	-0.1271217
40	0x3efc64f1	0.49295762
41	0x3f589803	0.8460695
42	0x3ba4130e	0.0050071543
43	0x4005bacf	2.089527
44	0x3df52ce1	0.119714506
45	0xbe468613	-0.19387083
46	0x3e493997	0.19650875
47	0x3e86df65	0.26342312
48	0x3e82aab6	0.25520867
49	0xbf295ad5	-0.66154224
50	0xbe68a76b	-0.22720115
51	0x3eb7bcb5	0.3588616
52	0x3f19d156	0.60085046
53	0x3de11fc6	0.109923884
54	0xbebd56ce	-0.3698029
55	0xbcffd9b7	-0.031231744
56	0xbe3d4ffe	-0.18487546
57	0x3f034726	0.5128044
58	0xbca1f58a	-0.019770402
59	0x3dbac20e	0.09119044
60	0x3d534a8d	0.05158477
61	0x3eae90bd	0.34094802
62	0xbe167765	-0.14693983
63	0xbe257902	-0.16159442
64	0xbe96159c	-0.29313362
65	0xbaa234a3	-0.0012375306
66	0xbf62d181	-0.8860093
67	0x3e2a7661	0.1664672
68	0x3dfe3fac	0.12414488
69	0x3df87161	0.12131
70	0xbd665239	-0.056230757
71	0xbd0ba9b8	-0.034097403
72	0x3e319c88	0.17344868
73	0xbda5a55a	-0.08088179
74	0xbe1a7773	-0.15084629
75	0x3edfeb88	0.43734384
76	0x3ce78b78	0.028264746
77	0xbe8fb77d	-0.28069678
78	0xbd0018ca	-0.03127364
79	0x3e1ad8ee	0.15121815
80	0xbf19fcc2	-0.601513
81	0x3ca6d055	0.020363012
82	0x3ebcc829	0.3687146
83	0xbd99002b	-0.07470735
84	0xbf2461f2	-0.6421195
85	0xbeabb8e5	-0.335395
86	0xbefa43e0	-0.4887991
87	0xbe1d1a97	-0.15342174
88	0x3dae1c92	0.08501543
89	0x3eb9eec2	0.3631497
90	0xbc3619f6	-0.011114588
91	0xbe555eac	-0.20836896
92	0xbcca563f	-0.024699328
93	0x4010cbc6	2.2624373
94	0xbd8fff55	-0.070311226
95	0x3e685819	0.22689857
96	0xbeedc73c	-0.46441066
97	0x3ee53a1a	0.4477089
98	0x3dc61cc7	0.096734576
99	0xbf1482ab	-0.58011883
100	0xbc174950	-0.009233788
101	0x3dc5a9b2	0.096515074
102	0x3f39396f	0.7235326
103	0x3ca1ceb9	0.019751893
104	0x3e345367	0.1760994
105	0x3cb3aca3	0.021932906
106	0x3e039c38	0.12852561
107	0x3ee52a98	0.4475906
108	0x3eaf3d4f	0.34226462
109	0xbed3873f	-0.41314122
110	0x3f36b808	0.7137456
111	0xbe79ac34	-0.24382097
112	0xbe9fd4f7	-0.31217167
113	0xbe78a952	-0.2428334
114	0x3f0d0977	0.5509257
115	0x3ecae759	0.3962963
116	0x3f3237a9	0.6961618
117	0x3d6e536f	0.058185037
118	0xbe5e71dc	-0.21723121
119	0xbef00244	-0.4687673
120	0xbd523078	-0.051315755
121	0x3e5f8def	0.21831487
122	0xbd863a52	-0.065540925
123	0xbe9fde39	-0.3122423
124	0x3e96d7ce	0.2946152
125	0xbf77ea35	-0.96841747
126	0xbc7e72b8	-0.015530281
127	0xbe883c6c	-0.26608598
128	0x3c8cf47c	0.017206423
129	0x3e1a1919	0.15048636
130	0xbe32b123	-0.17450385
131	0x3cb34c58	0.02188699
132	0x3f122b1b	0.57097024
133	0x3d1dfa43	0.038568746
134	0xbf065113	-0.5246746
135	0xbe34f169	-0.17670216
136	0x3f73047b	0.9492871
137	0x3e11c10c	0.14233798
138	0x3d886c10	0.06661236
139	0xbea06d22	-0.31333262
140	0x3f45c9fa	0.77261317
141	0x3e822828	0.25421262
142	0x3ea86b87	0.32894537
143	0xbf169b35	-0.5883058
144	0xbe2bcbb3	-0.16776924
145	0x3f03f3bb	0.5154378
146	0xbfb54180	-1.4160614
147	0x3e593c79	0.21214475
148	0xbf654de1	-0.8957196
149	0x3d81bfee	0.06335436
150	0xbfade90c	-1.3586745
151	0xbf2a7873	-0.6659004
152	0xbd0a4b7a	-0.033763386
153	0x3dcea9c4	0.10090974
154	0x3e645630	0.22298503
155	0xbe2e087b	-0.16995423
156	0xbfce1388	-1.609971
157	0x40023498	2.03446
158	0xbe726c0b	-0.23674028
159	0xbef87f26	-0.48534507
160	0x3db60d81	0.088892944
161	0x3e4e9188	0.20172703
162	0xbef631b2	-0.4808479
163	0xbdfb264b	-0.12263163
164	0x4053dc28	3.3103123
165	0x4054008a	3.312533
166	0xbd81c35f	-0.06336092
167	0xbd2e0b0b	-0.042491
168	0xbdd3e96e	-0.103472576
169	0x3bed54b3	0.007242763
170	0x3d171405	0.036884326
171	0x3e953255	0.29139963
172	0xbe638cfe	-0.22221753
173	0xbe09e45c	-0.13466018
174	0xbed91b0a	-0.42403442
175	0xbf463389	-0.77422386
176	0x3dc4157a	0.09574409
177	0xbe44e3e9	-0.19227566
178	0xbef8a366	-0.48562163
179	0x3e656844	0.22403055
180	0x3e183e88	0.14867604
181	0xbe9db5f1	-0.30802873
182	0x3e65f7c7	0.22457801
183	0xbcc3a5d7	-0.02388279
184	0xbeea8dd1	-0.45811322
185	0xbd808499	-0.06275291
186	0x3ea323ce	0.31863254
187	0x40e15cb5	7.042567
188	0x3def171a	0.11674328
189	0xbce5b403	-0.028039938
190	0xbefef0ef	-0.49793193
191	0x3f1579a3	0.5838873
192	0x3e266640	0.16249943
193	0xbec434ca	-0.38321525
194	0x3d5fbf63	0.05462588
195	0xbfab7ddf	-1.3397788
196	0xbf65c72b	-0.8975703
197	0xbed9b6d1	-0.4252229
198	0x3f0577f5	0.52136165
199	0x3e4724a3	0.1944757
200	0x3f21854a	0.6309401
201	0xbea37d31	-0.3193145
202	0xbec77d24	-0.38962662
203	0x3d369a9b	0.044581037
204	0xbfc6911a	-1.5513031
205	0xbe892e6f	-0.2679324
206	0x3f735a2e	0.9505948
207	0x3e97ef5e	0.2967481
208	0xbc2680a1	-0.010162503
209	0xbfdd9855	-1.7312113
210	0xbe686b36	-0.22697148
211	0xbf329dc8	-0.69772005
212	0x3ea9deaa	0.33177692
213	0xbd2d41fe	-0.042299263
214	0xbf062c00	-0.5241089
215	0x3e966cb1	0.293798
216	0xbf1f5ce3	-0.6225111
217	0xbea931f1	-0.33045915
218	0x3eb41b47	0.3517706
219	0x3f964c49	1.174203
220	0x3d8845db	0.06653949
221	0x3f0352d0	0.51298237
222	0x3f3b0678	0.73056746
223	0x3ea649df	0.32478234
224	0x3d90e50b	0.070749365
225	0x3f11bb58	0.5692649
226	0x3da685d4	0.081309944
227	0x3dfdc188	0.12390429
228	0x3e4c8512	0.19972637
229	0x3e563542	0.20918754
230	0xbe4670c1	-0.1937895
231	0x3cd5a255	0.026078383
232	0x3f2ad407	0.6672978
233	0x3f0526f0	0.5201254
234	0x3e111b81	0.14170648
235	0xbe1b9bfa	-0.15196219
236	0x3ed00a96	0.40633076
237	0x3cd215b1	0.025645109
238	0x3e0c8502	0.13722613
239	0x3f6c8e52	0.92404664
240	0xbf0f2d2d	-0.5592831
241	0xbecafe35	-0.3964707
242	0xbec84732	-0.39116818
243	0x3f54aa69	0.83072525
244	0xbf6468b0	-0.8922224
245	0xbf9e33f1	-1.2359601
246	0x3f461b3e	0.7738532
247	0xbeafa917	-0.34308693
248	0xbe9d238d	-0.30691186
249	0xbda3f1e9	-0.08005125
250	0x3de0b1a9	0.10971386
251	0xbb33fed4	-0.0027465122
252	0x3e15cca0	0.1462884
253	0x3e813fda	0.25244027
254	0x3ef61963	0.48066244
255	0x3d032b0a	0.032023467

MLP.6.bias f4 [25]
0	0xbe495c00	-0.19664001
1	0x3db85180	0.0899992
2	0x3e1b0920	0.151402
3	0x3f60110c	0.8752601
4	0xbd9eb6b0	-0.077496886
5	0x3e30eb99	0.17277373
6	0xbe9a8abe	-0.30183977
7	0x3ba01542	0.0048853466
8	0xbe9e7d89	-0.3095515
9	0x3d39d492	0.04536874
10	0xbd5ebb88	-0.054378062
11	0xbdc0c921	-0.09413362
12	0xbde5dfc8	-0.112243235
13	0x3c77129f	0.015080123
14	0xbd2c873a	-0.04212115
15	0xbe76bfd1	-0.2409661
16	0x3e71cb87	0.23612796
17	0xbe1da8b2	-0.15396383
18	0x3dbe2f68	0.09286386
19	0x3dc134e3	0.094339155
20	0x3bfa3eab	0.007636865
21	0x3d08107b	0.033218842
22	0xbdde0a9b	-0.108418666
23	0x3f87cf41	1.0610124
24	0xbe5feaa5	-0.21866854

MLP.8.weight f4 [10, 25]
0	0xbe380944	-0.17972285
1	0x3e4e8618	0.2016834
2	0x3f06d886	0.5267414
3	0xbcf92df1	-0.030417414
4	0x3e0766a7	0.13222753
5	0xbce5d0d8	-0.028053686
6	0x3d07600a	0.033050574
7	0xbd2ccbe3	-0.04218663
8	0xbe98df89	-0.29858044
9	0xbd13c3a2	-0.036075242
10	0xbd4eef91	-0.050521437
11	0xbdd0c109	-0.101930685
12	0x3e9e06db	0.30864605
13	0xbed0a166	-0.40748137
14	0x3d26dba8	0.040736824
15	0xbe4b9795	-0.19882043
16	0x3f8a38d5	1.0798594
17	0x3e57ead0	0.21085668
18	0x3ca25547	0.019816054
19	0x3ee8e6df	0.4548864
20	0x3ebc4e91	0.3677869
21	0x3e441a6b	0.19150703
22	0xbe84d80d	-0.25946084
23	0x3faba374	1.3409257
24	0xbee1cd03	-0.44101724
25	0xbc386d6c	-0.011256557
26	0xbdddf2eb	-0.108373486
27	0xbd1b103d	-0.037857283
28	0xbe2f085c	-0.17093033
29	0x3cf59da2	0.029982392
30	0x3eb3dfb9	0.35131624
31	0x3de8bee0	0.113645315
32	0xbf355afd	-0.7084196
33	0x3c221cde	0.009894578
34	0xbc872cbb	-0.016500821
35	0xbd64b6af	-0.055838283
36	0x3d182999	0.037149046
37	0x3e1a8955	0.1509145
38	0x3d46a117	0.04849347
39	0xbbb116c9	-0.0054043275
40	0x3d24a2a2	0.04019416
41	0xbdc14150	-0.094362855
42	0xbcbad7a9	-0.022807913
43	0x3dec569f	0.11539959
44	0x3dba2648	0.09089333
45	0x3bc7d81d	0.0060987608
46	0x3d323cd8	0.043515056
47	0x3db0b5b3	0.086284064
48	0xbe3bc297	-0.18335949
49	0x3d893878	0.06700224
50	0xbed86d47	-0.42270872
51	0xbf1c73ee	-0.61114395
52	0xbdee3f00	-0.1163311
53	0x3f59d950	0.8509722
54	0xbefa9cae	-0.48947662
55	0xbe19c30a	-0.15015808
56	0x3f25c417	0.64752334
57	0xbdb41dad	-0.08794723
58	0x3ebfd0c9	0.37463978
59	0x3ebb4a22	0.36579996
60	0x3d84cce8	0.06484395
61	0x3e90180c	0.28143346
62	0xbd855d1a	-0.06511898
63	0xbe5778dd	-0.210422
64	0xbd56ef7e	-0.05247449
65	0xbf03043b	-0.5117833
66	0xbe531814	-0.20614654
67	0xbee810af	-0.4532523
68	0xbf83caac	-1.0296226
69	0xbdadecd6	-0.084924385
70	0x3e408f95	0.18804772
71	0xbf07e6d3	-0.53086585
72	0xbee81528	-0.4532864
73	0xbee0a5d7	-0.43876526
74	0x3e9d1215	0.30677858
75	0x3f039d48	0.5141187
76	0x3e9243b4	0.28567278
77	0x3ce23a84	0.027615793
78	0x4027f4eb	2.6243236
79	0x3cd8cd82	0.026465181
80	0x3d8f7778	0.07005209
81	0xbf2e6dc2	-0.6813623
82	0xbd1f55f3	-0.038900327
83	0xbd902cc7	-0.070397906
84	0x3db08a98	0.08620185
85	0xbdb57ea6	-0.08862047
86	0xbc6cd260	-0.014454454
87	0x3c2d7805	0.010587697
88	0xbbfca143	-0.0077096536
89	0xbf16353d	-0.58674985
90	0x3d550524	0.052006856
91	0x3e86f6e4	0.26360238
92	0xbe67e9d2	-0.22647789
93	0xbe444184	-0.19165617
94	0x3f92a829	1.1457568
95	0x3ddb3f55	0.10705439
96	0xbf540827	-0.8282494
97	0xbde4f1d8	-0.111789405
98	0x3fb77f5d	1.4335743
99	0xbd1b7262	-0.03795088
100	0xbefba427	-0.49148676
101	0xbe166d01	-0.14690019
102	0x3e21e99e	0.15811774
103	0x3f92f720	1.1481667
104	0x3dacdfbe	0.08441113
105	0xbccd0c08	-0.025030151
106	0x3e638961	0.22220375
107	0x3c5f0400	0.0136117935
108	0x3f46c0cd	0.7763794
109	0x3c604c62	0.013690086
110	0x3f1e7dec	0.6191089
111	0xbdf37148	-0.11886841
112	0xbeaf621e	-0.34254545
113	0xbf69e5e9	-0.9136644
114	0xbe627e23	-0.2211843
115	0xbe8ad15d	-0.27112857
116	0x3f1d7c9b	0.6151826
117	0x3e2faf29	0.17156662
118	0x3d9cb8da	0.07652445
119	0xbf0fbf19	-0.56150967
120	0x3d35936a	0.044330038
121	0x3e3e11bd	0.18561454
122	0x3de11bc0	0.10991621
123	0x3e8c39df	0.27387902
124	0x3dfadfe4	0.12249735
125	0xbe819b8c	-0.25313985
126	0xbe11ebb7	-0.14250074
127	0xbf242a72	-0.64127266
128	0xbe105a29	-0.14096893
129	0xbfce80ac	-1.6133018
130	0xbcc29154	-0.023750938
131	0xbd6033e0	-0.05473697
132	0x3c2662cf	0.010155394
133	0x3e66fd7b	0.22557633
134	0xbe1bb2d7	-0.1520494
135	0x3f45ed88	0.7731557
136	0xbe403d78	-0.18773448
137	0xbeea31dd	-0.45741168
138	0x3f472aea	0.77799857
139	0xbe0376cd	-0.12838288
140	0xbf7f53b5	-0.997371
141	0x3e258021	0.16162159
142	0xbef01ba3	-0.46896085
143	0xbd9ec364	-0.077521116
144	0xbde4d989	-0.11174304
145	0xbc74edbd	-0.014949259
146	0xbe12cae9	-0.14335217
147	0x3f40bed9	0.7529121
148	0xbe0385cb	-0.12844007
149	0x3f4c584d	0.79822236
150	0x3e32b611	0.17452265
151	0xbe346002	-0.17614749
152	0xbebd1b4c	-0.36934888
153	0x3f809869	1.0046512
154	0x3e59b3cb	0.21259992
155	0xbcd3345a	-0.0257818
156	0xbdb48ddd	-0.08816121
157	0xbcf3cbe4	-0.029760309
158	0xbe566aaa	-0.20939127
159	0x3e240383	0.16016965
160	0x3e14bcdd	0.1452517
161	0xbcd68e3b	-0.026190868
162	0x3dc570f7	0.09640687
163	0x3e9421c4	0.2893201
164	0x3deeba16	0.11656587
165	0x3e423a04	0.18967444
166	0x3d33db82	0.04391051
167	0x3b9f7fb4	0.0048675183
168	0xbe454791	-0.19265582
169	0x3f27fa2e	0.6561612
170	0x3e612e2b	0.21990268
171	0x3e9d4c1c	0.3072213
172	0xbe11533e	-0.1419191
173	0x3f843ed9	1.033168
174	0xbdb0d26f	-0.08633887
175	0x3e870f09	0.26378658
176	0x3eb94ab4	0.36189806
177	0x3d8961d3	0.067081116
178	0x3e89a37c	0.2688254
179	0xbcdd8ce4	-0.027044721
180	0xbeb9a946	-0.36261958
181	0x3c93d4e0	0.018045843
182	0x3f48ee4c	0.7848861
183	0xbd828342	-0.06372692
184	0xbd09aaa6	-0.03361001
185	0x3dd788e5	0.105241574
186	0xbd9c459d	-0.07630465
187	0x3cc8a964	0.024494834
188	0xbce78e4d	-0.028266096
189	0xbc76f7fa	-0.015073771
190	0xbe90aed2	-0.28258377
191	0x3dfb7e12	0.122799054
192	0x3d879bd4	0.06621519
193	0x3d766215	0.060152132
194	0x3d7b9427	0.061420586
195	0xbd2b3889	-0.041801963
196	0x3e7a6812	0.24453762
197	0x3c4dd610	0.0125632435
198	0x3e8d70f6	0.27625245
199	0x3ddbe6c2	0.10737373
200	0xbf45902f	-0.7717313
201	0x3f103ed0	0.56345844
202	0xbdfdbb4c	-0.1238924
203	0xbc599257	-0.013279519
204	0x3c93604a	0.01799025
205	0x3bce04ce	0.006287194
206	0xbe48fd16	-0.19627795
207	0x3d3e7d1b	0.04650603
208	0x3e215f3f	0.1575899
209	0x3d380618	0.044927686
210	0x3f234cd8	0.6378913
211	0xbdbade30	-0.0912441
212	0xbed52799	-0.41631773
213	0x3e3a72ad	0.18207808
214	0x3d200f0e	0.039076857
215	0xbe94cb9d	-0.29061595
216	0x3f1204ed	0.57038766
217	0x3de16eb5	0.11007444
218	0x3f847c02	1.0350344
219	0xbe1f033f	-0.15528582
220	0xbc72515a	-0.014789904
221	0x3eb4c8ee	0.35309547
222	0x3ea201cb	0.31641993
223	0x3cbe9819	0.023265885
224	0x3e9fd3cd	0.3121628
225	0xbf021421	-0.50811964
226	0x3ecda656	0.40165967
227	0xbd63beac	-0.05560176
228	0xbdf30b83	-0.1186743
229	0x3c083e24	0.008315597
230	0xbd81a36a	-0.06329997
231	0x3dda3670	0.106549144
232	0x3d785ae1	0.060633544
233	0x3f6b9258	0.9202018
234	0xbe5a0520	-0.21291018
235	0xbe5ccf77	-0.21563517
236	0xbf60e781	-0.87853247
237	0x3e4bcb2d	0.19901724
238	0xbaed8837	-0.001812226
239	0xbe14beaf	-0.14525865
240	0xbe574923	-0.21023993
241	0xbe146555	-0.1449178
242	0x3dfa143c	0.12210891
243	0x3f6c1b42	0.9222909
244	0x3de1bfa5	0.110228814
245	0xbd9046a1	-0.070447214
246	0x3f0c4644	0.54794717
247	0x3df3c35f	0.119024985
248	0xbd677be9	-0.056514654
249	0x3f19578f	0.5989923

MLP.8.bias f4 [10]
0	0xbe0dc81f	-0.13845871
1	0x3e5bdb2b	0.21470325
2	0x3d770966	0.060311697
3	0x3da40b23	0.08009937
4	0x3d5975b1	0.053090755
5	0xbdb3b14f	-0.08774053
6	0xbda7e876	-0.08198635
7	0xbdf57a2b	-0.11986192
8	0xbd4dcb05	-0.050242443
9	0xbd916dc4	-0.07101014

MLP.10.weight f4 [1, 10]
0	0xbd716bf7	-0.058940854
1	0xbe977bb6	-0.2958657
2	0xbcbf5cbd	-0.02335965
3	0xbe188ff4	-0.14898664
4	0xbd4d8312	-0.050173827
5	0xbdb8a080	-0.09014988
6	0xbdbde065	-0.092713155
7	0x3e38eb96	0.18058619
8	0x3d55a0da	0.052155353
9	0x3d1e9c51	0.038723294
