Model/Effective-Gravity/Effective-Gravity-model.pth (torch, 114433 bytes, 11 tensors)

MLP.0.weight f4 [200, 4]
000000 6b 5e c8 3e d0 01 bb 3e c7 3f a0 bd 80 38 09 3f
       0.39134535 0.3652482 -0.078246646 0.5360184
000010 30 36 11 ba e6 fd fd b9 20 64 89 ba 24 61 8f 3a
       -0.00055393856 -0.0004844509 -0.001048211 0.0010938984
000020 df f7 a9 3d 48 66 85 3e e6 6d d8 3e 34 52 17 3e
       0.08299231 0.26054597 0.42271346 0.14777452
000030 a3 d9 f6 3e 08 da 98 3e 0a eb 65 3e f9 b4 1e 3d
       0.4821292 0.29853845 0.22452942 0.038746808
000040 74 59 c5 be 13 33 4e be c3 9a cc 3e ff 68 9e be
       -0.3854481 -0.20136671 0.39961824 -0.3093948
000050 02 6f 85 3b e0 41 80 bf 87 67 b3 be 97 a0 45 3f
       0.004072071 -1.0020103 -0.35039923 0.77198166
000060 81 b8 fe 3d 2b 60 4b 3d 77 85 50 3e 14 cf 18 3f
       0.12437535 0.04965226 0.20363413 0.59690976
000070 05 98 d3 3e 2a e1 56 be c5 e6 86 bd db f4 a0 be
       0.4132692 -0.20984331 -0.065869845 -0.3143681
000080 e3 d9 1e 3f 50 9c 3f bc 10 d8 91 3d 99 56 45 be
       0.6205122 -0.011694983 0.07121289 -0.19271316
000090 bf 3c 46 3f 88 f7 b9 bc 5d a0 f2 be 43 d1 2f bf
       0.7743644 -0.02270104 -0.47387972 -0.68678683
0000a0 58 6e 19 be 2c c2 7a 3e d6 b2 45 3f 4f 4a 35 3e
       -0.14983499 0.24488133 0.77226007 0.17704128
0000b0 e4 ca da be 84 f3 44 3d 63 28 a8 bd d9 43 32 bf
       -0.42732918 0.048083797 -0.08210828 -0.6963478
0000c0 28 d5 60 3e f2 1d a7 bc 75 b9 25 3f 6f fa 57 bf
       0.21956313 -0.020400021 0.6473611 -0.84366506
0000d0 66 89 32 3f f5 d2 b7 ba 71 71 b0 3e d5 9a 81 bd
       0.69740903 -0.0014024662 0.3446155 -0.0632836
0000e0 7d 26 51 3b 55 54 06 3e 12 e3 94 3f 50 4f b3 bf
       0.003191381 0.13118108 1.1631796 -1.4008579
0000f0 40 a1 4b 3f c5 78 e7 3c 4f 18 22 3e 66 3a 8c 3e
       0.7954292 0.02825583 0.15829585 0.27388304
000100 47 8a 8b be e9 45 46 3c 82 f9 62 bf 70 79 24 3f
       -0.27253935 0.012101629 -0.8866197 0.642478
000110 dc 91 98 b9 88 ef dd b9 e8 0e 30 b9 29 3a 04 ba
       -0.00029100373 -0.0004233087 -0.00016790221 -0.0005044067
000120 e8 84 16 bf 88 40 66 3d 43 56 6b bf 16 bc 0d 3f
       -0.5879655 0.056213886 -0.919285 0.5536512
000130 5e 13 cf b9 c5 be e8 b9 ca d1 13 3a 9d 9f c1 ba
       -0.00039496546 -0.00044392623 0.0005638866 -0.00147723
000140 12 67 05 ba 88 e9 20 ba 66 b4 92 ba f3 d3 88 ba
       -0.0005088906 -0.00061383145 -0.0011192679 -0.0010439142
000150 b3 6f 92 be a1 46 c6 bc a9 e1 2d be 15 87 72 bf
       -0.28600845 -0.0242036 -0.16980614 -0.9473737
000160 bf 1d b3 39 a6 da ef ba 4d 46 8d 3e d0 b5 b6 be
       0.00034163703 -0.0018299415 0.27592698 -0.35685587
000170 ac 71 ca ba 84 4c ac 39 be 7a 1d b9 66 62 aa b9
       -0.0015445254 0.00032863405 -0.00015018412 -0.0003249824
000180 e1 ab 5b 3f aa ca d5 3c c5 f5 7d 3e 5d 1f dd 3e
       0.8580914 0.026097614 0.24800785 0.4318799
000190 9a dd d1 bb b4 26 97 3d 6f a1 83 3f c4 53 05 bf
       -0.006404591 0.07380429 1.0283641 -0.5208094
0001a0 a4 ca b0 bd d8 c7 06 bf dd 3c 53 bf 3f 63 bc 3e
       -0.08632401 -0.5264869 -0.82514745 0.3679447
0001b0 4a f0 36 3f 69 3f 66 3e 6e 7f aa 3e 34 1f 65 bd
       0.714604 0.22485127 0.33300346 -0.05593796
0001c0 b6 c0 4a 3e 31 29 ad 3c 8f 92 98 bd d6 0e 23 3f
       0.19800076 0.021137806 -0.07449829 0.6369451
0001d0 71 96 17 3f 45 84 20 be da af c6 bd eb a1 4a 3e
       0.5921393 -0.15675457 -0.0970151 0.1978833
0001e0 79 bc bc 3a b2 7d 7e be a2 e1 57 3f 93 b1 df 3c
       0.0014399431 -0.24852636 0.84328663 0.027306354
0001f0 2b d3 0e 3f 2d f2 95 be c6 05 8f be 82 61 9e 3e
       0.55790967 -0.29286328 -0.27934092 0.30933768
000200 61 f4 70 b8 95 32 41 3a 8d 85 fe b8 9f af 99 37
       -5.7448055e-05 0.0007369903 -0.000121365396 1.8320801e-05
000210 37 0b 51 3a 86 fd d9 be 56 ed 08 3f 57 73 02 3e
       0.00079743884 -0.42576236 0.53487146 0.12739311
000220 d0 35 b0 38 04 5f e7 bc 96 9d 5c be ca 15 84 bf
       8.402357e-05 -0.02824355 -0.2154449 -1.031915
000230 97 a1 de 3d 16 ad c1 3e 7f 90 66 3f 7b 80 a0 be
       0.108706646 0.37827367 0.90064234 -0.31348023
000240 52 eb 41 bf 2c 06 34 3b 02 ce 86 bd cc 2b eb 3d
       -0.75749695 0.00274695 -0.065822616 0.11482963
000250 b0 8c 07 bf 85 d7 2e 3d ca 0d 38 be 72 41 ff bd
       -0.5294905 0.042686004 -0.1797401 -0.124636546
000260 e2 98 a2 bc ee 79 03 be ac c2 69 3f a8 f4 90 bf
       -0.01984829 -0.12839481 0.9131267 -1.1324663
000270 70 6b 4f bf f9 4f e1 3e 56 9b da 3d 63 33 eb be
       -0.8102331 0.44006327 0.10674159 -0.45937642
000280 63 7c 15 bc f6 97 ff bc 12 eb fb 3d 06 06 5d bf
       -0.009123894 -0.03120039 0.123006955 -0.86337316
000290 e3 cc 45 3f 7c 80 fd bd 00 b2 46 bc 66 6b 26 be
       0.7726576 -0.12378022 -0.012127399 -0.16251907
0002a0 62 de 51 39 88 f9 17 3a b7 ca 24 ba 68 f1 ea 39
       0.00020014637 0.0005797376 -0.00062863104 0.0004481182
0002b0 54 ec 2b 3f d5 b5 fd bb d4 8e 93 3d 1f 74 f1 bd
       0.67157483 -0.0077426233 0.07204977 -0.117897265
0002c0 13 5d d0 3a 44 f3 90 bf ba 4c 14 bf 12 68 da 3e
       0.0015896879 -1.1324239 -0.57929575 0.42657524
0002d0 97 7a d2 ba 5f 4f fa ba 78 27 d2 ba c5 a0 30 ba
       -0.0016058263 -0.0019097141 -0.0016033491 -0.0006737824
0002e0 07 f8 d3 3e da b5 9f 3e 04 ab 4c bd 52 fa 6c 3e
       0.41400167 0.3119343 -0.04996778 0.23142365
0002f0 46 5a 37 39 d5 ec 8e 39 8e 34 36 b9 23 6f 1d ba
       0.0001748587 0.00027260804 -0.0001737645 -0.00060056354
000300 c6 01 00 ba 35 f5 ec b9 20 e7 2e ba 28 e6 03 3a
       -0.0004883077 -0.0004519612 -0.00066720136 0.00050315494
000310 7d 94 66 3f 10 b2 93 3e 2b 39 29 3e a5 78 a0 3b
       0.90070325 0.28846788 0.16525714 0.0048971944
000320 48 11 4b bf c5 8f 8a 3c e8 c3 9b be 6a 21 03 3f
       -0.79323244 0.016914258 -0.30422902 0.5122286
000330 2e 81 cd be 00 7e 8c be 80 4c d7 be 6b b5 3b be
       -0.4013762 -0.2743988 -0.42050552 -0.18330924
000340 7b ae a2 3d 83 3f cf 3c c9 72 8e 3f e0 6d 55 bf
       0.07943436 0.02529884 1.112878 -0.8337078
000350 13 db 04 bf b7 d6 88 3e 45 4f cc 3d 85 da f6 be
       -0.5189678 0.26726314 0.09976057 -0.48213592
000360 c3 99 ad 3e 5f 6f 22 3e 6a b1 7f bf ed 4a 3f 3f
       0.33906373 0.15862797 -0.9988009 0.747237
000370 6f 47 5c ba 82 18 4c 3f cb 88 82 bf 4c 1f 84 3e
       -0.00084029784 0.79724896 -1.0197996 0.25805128
000380 0e 77 23 3e a5 ad 22 bf dc d5 29 3f 7d c4 57 bf
       0.15963385 -0.6354621 0.6634195 -0.8428419
000390 30 49 78 bb be 01 1e bf 23 a2 02 3f 31 7b 4f be
       -0.003788542 -0.6172141 0.5102865 -0.20261838
0003a0 b6 7a 09 bf 2f 8d bf bc 55 16 8d 3d 38 81 87 be
       -0.5370287 -0.023382751 0.06889025 -0.26465774
0003b0 7e 49 b3 be 57 5c 60 be 2c bf 1f bd 05 5e 82 be
       -0.35017008 -0.21910225 -0.039000675 -0.25462356
0003c0 a1 5e 79 3b c3 f3 5a 3d 18 f4 29 3f 1c c5 95 3e
       0.0038050788 0.053455126 0.6638808 0.29251945
0003d0 cb 29 b0 3e 2f d8 81 3e 39 29 63 bf 7e 6e ac be
       0.34406886 0.25360247 -0.88734776 -0.3367805
0003e0 e4 05 bc be 98 94 09 bf 20 93 3b 3e 56 b7 af bd
       -0.36723244 -0.5374236 0.18317842 -0.085798904
0003f0 b6 84 45 ba 98 d9 a3 ba c4 1a 99 ba 85 a5 f4 37
       -0.0007534729 -0.0012500761 -0.001168095 2.9164143e-05

MLP.0.bias f4 [200]
000000 33 ef 1e bf ea 86 90 ba eb 8b 11 bf 3c 13 3a bf
       -0.6208374 -0.0011026536 -0.5685412 -0.726856
000010 29 8a 06 3f 32 2c 27 be 1d e7 24 bf a8 be 9a 3c
       0.52554566 -0.16325453 -0.6441515 0.01888974
000020 0e 4f f5 be 8b 27 80 3d ed ec 37 bf 0b e6 dd 3e
       -0.47911876 0.06257542 -0.71845895 0.4333957
000030 ba 66 62 3d c0 6b 8f be 90 1c 91 3e fc 48 dd be
       0.05527375 -0.28011894 0.28342104 -0.43219745
000040 8c 04 90 bc 6f 89 1f ba 2f 7d 2b 3e a4 14 4a b9
       -0.017580293 -0.0006085848 0.16746973 -0.0001927191
000050 43 45 a2 ba 9c 12 aa 3e 58 54 9f 3d 10 3e 0a bb
       -0.0012380261 0.33217323 0.07779759 -0.002109412
000060 95 42 29 bf e9 8c c8 be 0b 2c 6a 3e a1 ef fa be
       -0.6611722 -0.39170006 0.22868364 -0.49010947
000070 5b 13 10 bf f9 7b 12 bf 42 58 0d bf d5 3f 7d be
       -0.56279534 -0.5722042 -0.55212796 -0.24731381
000080 8a 73 44 ba e3 1e 9a be 9a b3 95 3e 25 3f 20 bf
       -0.00074940233 -0.3010169 0.29238588 -0.6259635
000090 17 3a 35 3f 14 d3 10 3f c4 21 cc 3e 84 69 1e 3f
       0.70791763 0.5657208 0.3986951 0.61879754
0000a0 ed 0a 7a 3e 53 82 17 bf 53 dc a3 ba 48 0b 15 bf
       0.2441823 -0.59183234 -0.0012501575 -0.5822034
0000b0 13 36 88 3e fd c5 a2 ba 93 a8 05 bf 9e a3 81 ba
       0.26603755 -0.0012418624 -0.5221035 -0.0009890681
0000c0 f3 b2 39 b9 5d 60 dc be 99 15 0e 3f 13 6d fc 3e
       -0.00017709639 -0.4304227 0.55501705 0.49301967
0000d0 dc 04 4c be 25 86 98 3e fb 4e 16 bf 0d d8 c7 be
       -0.19923729 0.29789844 -0.58714265 -0.3903202
0000e0 9f c4 93 3e 58 a4 5c 3d c1 0e 74 3e a8 c6 26 3f
       0.28860947 0.053867668 0.23833753 0.65146875
0000f0 3e a3 45 bf 5a 59 8f bd 71 fb b5 3e 93 81 3b ba
       -0.7720221 -0.06999464 0.35543397 -0.0007152792
000100 55 21 a2 be b8 c2 e1 b9 af 70 1f ba b2 36 25 ba
       -0.31666055 -0.0004306042 -0.000608216 -0.0006302401
000110 f5 80 03 3f 46 fb 44 3e 1c c8 e5 be 7c ce 4d ba
       0.5136865 0.19236478 -0.44879234 -0.0007850898
000120 4c ce 1d 3f e1 88 f6 be 16 4a e7 be 75 74 d7 3e
       0.6164291 -0.48151305 -0.4517371 0.42081037
000130 dc 90 27 bf de a0 93 bd 6a 39 2b 3f e8 e9 44 be
       -0.6545541 -0.07208417 0.6688448 -0.19229853
000140 2c 85 c2 be 15 07 29 39 cd f3 3a 3f 15 e1 26 3f
       -0.37992227 0.00016119734 0.7302826 0.651872
000150 90 a2 92 ba f9 4e 1e 3f 8f 23 26 bb 08 37 32 3f
       -0.0011187363 0.6183925 -0.0025350784 0.6961522
000160 f7 67 09 3f 7b f6 fc 3d 2f 8a 16 bf 7f 74 8b b9
       0.5367426 0.123517 -0.588046 -0.00026598942
000170 ab 0f 47 ba 09 6f ff be a9 70 2a 3d 41 1a 8f 3e
       -0.0007593582 -0.498894 0.041611347 0.27949718
000180 42 8d 6a bb bd 1b 9b 3e cc c7 39 3f 25 46 ea 3e
       -0.0035789763 0.302946 0.7257049 0.4575664
000190 6c ac ee 3d 7b b4 c7 be 98 6a a5 be 9b 4a e0 3e
       0.116539806 -0.39004883 -0.32307887 0.4380692
0001a0 9f 6d 2c bf 4f f6 09 bf f6 10 5b 3e b7 79 03 bf
       -0.6735477 -0.5389146 0.21393189 -0.513576
0001b0 89 42 08 3f e4 69 1e 3e 3f 5b 20 bf 0a ef 9e be
       0.53226525 0.15470082 -0.6263923 -0.31041747
0001c0 db b4 28 38 30 3f 3d bf 3c 5e 28 bf ab 95 af be
       4.0222756e-05 -0.7392454 -0.6576879 -0.34293875
0001d0 f1 1d 38 bf ef 09 dd 3e 63 4a 57 3d 4e 12 b4 ba
       -0.71920687 0.4317164 0.052561175 -0.0013738365
0001e0 58 62 93 be 82 40 15 bf 0d 8d 16 bf 17 a4 0b 3f
       -0.28785968 -0.58301556 -0.58808976 0.54547256
0001f0 4d 25 3a bb 55 82 35 3f 8f f9 ed be 79 27 58 bf
       -0.002840358 0.70901996 -0.4647946 -0.8443523
000200 94 42 42 bb 1b a1 1b bf 5b ea f2 be 45 03 75 bb
       -0.0029641734 -0.607927 -0.47444424 -0.0037385982
000210 2b 05 36 bf 22 78 04 bf b4 4d 65 be e4 bf da ba
       -0.71101636 -0.5174581 -0.22392923 -0.0016689268
000220 29 86 f1 3e a7 d2 41 be 25 dc f2 b9 f7 4a 6c be
       0.4717267 -0.18928014 -0.00046321857 -0.23075472
000230 7f 14 20 bf d7 49 11 bf 8b 3f 6b 3e 1d 35 0f 3f
       -0.62531275 -0.56753296 0.22973458 0.5594042
000240 e6 de c4 3e 64 e4 27 3f bd fc c0 3e 41 5b bd 3e
       0.38451308 0.6558287 0.37692824 0.36983684
000250 89 69 e7 3e 5f a8 19 ba ba 37 eb be ff f4 11 bf
       0.45197704 -0.0005861576 -0.45940953 -0.5701446
000260 da 88 3d 3e 37 ec a8 bd 63 ad 30 3f 2c 8d 44 bf
       0.18509236 -0.082481794 0.6901457 -0.7677791
000270 4e aa 9b 3e a3 c8 c1 be 05 a1 a3 be 98 6c 23 bf
       0.3040337 -0.37848386 -0.31958786 -0.63837576
000280 8d 37 db 3d 21 1b 33 bf f5 08 20 3c 2b 10 4a 3f
       0.10703955 -0.6996327 0.0097677605 0.7893092
000290 63 21 1a 3f 1a c2 12 bd 4f d1 09 bf 3c 55 92 ba
       0.60207194 -0.03582964 -0.53835005 -0.0011164318
0002a0 21 7b 9d 3e d6 88 23 bf 16 08 26 bf d7 d5 0f bf
       0.30758002 -0.6388067 -0.6485609 -0.5618567
0002b0 31 f7 64 b9 83 d1 00 ba 2b 37 55 3e 61 91 99 3e
       -0.0002183586 -0.0004914032 0.20821826 0.29993728
0002c0 e9 5c f3 ba c5 ad b0 3e 28 ec 0b 3f 37 91 ea 3e
       -0.0018567118 0.34507576 0.5465722 0.45813915
0002d0 f0 44 10 3f b2 3f fb bd 13 c4 b5 3d 07 a8 d5 b9
       0.5635519 -0.12268008 0.08875289 -0.00040751716
0002e0 2b 3e 29 3f 28 b8 b9 be e2 a6 00 bf fe 46 93 b9
       0.66110486 -0.36273313 -0.5025464 -0.00028090918
0002f0 9f e3 06 bf 8c d1 cd be b9 53 b7 3e 9a 6b 80 be
       -0.5269107 -0.40198934 0.35806063 -0.25082093
000300 48 3a f0 be 9b 92 0c bf ef c0 fc be 86 af ba 3e
       -0.46919465 -0.549112 -0.49365947 0.3646204
000310 85 c8 0f 3e 7a fe 3a 3e 4f 0d 25 ba 17 b6 ea 3e
       0.14041336 0.18261138 -0.00062962336 0.4584205

MLP.2.weight f4 [100, 200]
000000 48 25 15 bf 1d 95 34 3b 75 2d 28 3e cf c8 a2 bf
       -0.5826001 0.0027554699 0.1642359 -1.2717532
000010 86 06 10 be db 85 32 bf 49 9b dd 3f 6b df 85 be
       -0.14064988 -0.697355 1.7313014 -0.26147017
000020 42 48 14 3e c0 05 b2 bf d6 49 12 3e 2e f6 46 bd
       0.14480689 -1.3908005 0.14285979 -0.04857462
000030 1c c6 8f be ab 86 3e bd 8c 43 58 bf b7 80 66 3e
       -0.28080833 -0.046515148 -0.8447807 0.22510038
000040 5a ef 4c 3f c5 10 cb 3b 36 b6 23 3f 5f 16 58 3b
       0.8005272 0.0061970674 0.63949907 0.0032972319
000050 93 53 e6 ba dc a6 b0 3e eb fe 49 3e 15 36 b1 bb
       -0.0017572514 0.34502304 0.1972615 -0.0054080584
000060 6b 11 14 bf 2b 9e a9 bd 73 bc 79 3f b2 85 6d bf
       -0.5783908 -0.08282121 0.97553176 -0.9278213
000070 15 4e bc bf 8a c0 95 3d d4 0c 8a be 4f 6a 60 be
       -1.4711329 0.073121145 -0.26962912 -0.21915554
000080 43 81 b6 bb 58 92 e1 3e d6 e8 04 3f 33 13 8f 3e
       -0.0055696084 0.44056964 0.5191778 0.27944335
000090 8e 62 c1 bd f6 a4 8f 3e d5 7d d0 3f 28 d7 5f 3e
       -0.09442626 0.28055543 1.6288401 0.2185942
0000a0 92 44 a0 3e b6 34 3d 3f 06 89 ef ba 7f d3 76 3e
       0.31302315 0.73908556 -0.0018275089 0.24104117
0000b0 01 8e 08 be c7 6b 83 bb 59 98 38 bf b3 68 22 3c
       -0.1333542 -0.004010651 -0.72107464 0.009912658
0000c0 fb cb 64 b8 47 4c 6d 3f 1d 86 5a be 9d cb 4b 3c
       -5.4549408e-05 0.92694515 -0.21340223 0.012438682
0000d0 c6 a9 10 3e 14 b1 95 bf a1 0b 2c bf 25 f3 db c0
       0.14127263 -1.1694665 -0.67205244 -6.8734307
0000e0 bd 3f cf bd 6a 51 d7 3e 59 e8 a8 bf c8 52 b4 3d
       -0.10119579 0.42054302 -1.3195907 0.08804852
0000f0 a7 82 ec bd 14 03 76 bf dc 70 b2 be 0e 07 cd 3b
       -0.115483575 -0.96098447 -0.3485173 0.0062569445
000100 ec 7f 90 3f ef a5 4a 3a b8 99 a6 bb 08 97 80 bb
       1.1289039 0.00077304145 -0.0050842427 -0.0039242543
000110 28 36 f7 3d c7 16 b2 bd 3a d6 0b bf 8b 05 e1 bb
       0.12070876 -0.08695751 -0.5462376 -0.006867116
000120 3a 6b 9c be 1d 9e 9b be 80 a3 b7 be c7 37 48 be
       -0.30550557 -0.30394068 -0.35866928 -0.19552527
000130 64 16 c2 bf b4 af 98 3e b5 e9 31 bf 61 50 21 be
       -1.5163083 0.2982155 -0.69497234 -0.15753318
000140 b0 98 b5 3e d5 18 9c bb 19 de 38 be ea 75 5e 3d
       0.35468054 -0.0047637024 -0.18053474 0.05431167
000150 86 51 66 3a 42 c7 4f 3d 50 de a7 3b 1a fd ae bb
       0.00087859516 0.050727136 0.0051229373 -0.0053402307
000160 9f 1f 9e 3f f3 e3 6d be 03 67 24 3f e1 09 70 bc
       1.23534 -0.23231487 0.64219683 -0.014650793
000170 2b 37 d3 3b 8d 41 00 bf 01 9f 9b c0 37 4c 44 bf
       0.0064457855 -0.5010002 -4.8631597 -0.76678795
000180 e1 20 1c 3d 3b b8 96 be 65 62 5d 3e 31 32 08 be
       0.038117293 -0.29437432 0.21619566 -0.13300397
000190 45 d0 08 c0 2a 91 35 3d be 78 a0 bf 13 b9 ab be
       -2.1377118 0.044327892 -1.2536848 -0.33539638
0001a0 3e 70 2d be 7c 30 2b be 3c 4e 4b 3f 4f bd b9 be
       -0.16937348 -0.16717714 0.7941625 -0.36277243
0001b0 fd 92 97 bd c1 1a 44 bd 1d 88 b3 bf 09 63 8c 3e
       -0.07401083 -0.047877077 -1.4025913 0.27419308
0001c0 26 7b 39 3b f5 10 81 bf cf 9e bb 3e 9d 31 c3 3d
       0.0028302162 -1.00833 0.366446 0.09530947
0001d0 f4 34 81 be ea 03 dc 3e e9 6e 26 3f 05 85 51 3c
       -0.25235713 0.42971736 0.65012985 0.012788062
0001e0 34 3a 34 bc 47 4b 23 bf 9c 4f d3 be 23 25 08 be
       -0.011000205 -0.6378674 -0.41271675 -0.13295417
0001f0 3b b0 93 39 ca 0a 14 bd 86 37 97 3e 32 06 58 bc
       0.00028169327 -0.0361431 0.2953455 -0.013185071
000200 ec ad bd 3b 67 bc 9e 3d a8 3d e5 3e 12 ef 03 3d
       0.0057885554 0.07750779 0.44773602 0.032210417
000210 b5 9f f7 3e a8 5c ce be 11 95 c1 be dd 3a 89 bb
       0.48364034 -0.40305066 -0.3780904 -0.0041879253
000220 43 65 99 3f 8e ff 5e 3e c6 f7 41 bb 23 46 8a 3e
       1.1984028 0.21777174 -0.0029597147 0.27006635
000230 38 0f ab bf a3 b5 12 3f 4d db dd bf 09 73 97 3f
       -1.3364019 0.57308406 -1.733255 1.1831981
000240 36 91 2f bf fc bf 92 be 22 32 5c 3f 69 5c b3 bf
       -0.6858095 -0.28662097 0.86013997 -1.4012576
000250 a2 5d 54 3e ec 1c 3a bb 4c 7b c1 3d e0 73 9f 3e
       0.20738843 -0.0028398586 0.09447345 0.31143093
000260 96 02 72 3f ea bc b1 bf 3c 0e 24 3d 42 ca 5f 3e
       0.94535196 -1.3885777 0.040052637 0.21854499
000270 e7 f1 00 3f d7 a1 38 3f 1e 94 d2 be c5 0b 2d bf
       0.50369114 0.7212195 -0.4112863 -0.67596084
000280 e1 87 2b 3f 27 10 f4 3e 2a 16 d5 bf 3d 79 a1 bc
       0.6700421 0.47668573 -1.6647389 -0.019711131
000290 86 cb 2e 3e 9b 92 23 bf c2 f4 ac be ae eb eb 3a
       0.17069826 -0.6389558 -0.33780485 0.0017999315
0002a0 c7 92 af be c9 3e 3d 3d 8a d5 c7 3f af bc 0f 3f
       -0.3429167 0.046202455 1.5612042 0.56147283
0002b0 b6 e9 1b bc 7b 48 c4 3b 34 14 91 3f d3 88 08 3e
       -0.00951617 0.0059900857 1.133429 0.13333444
0002c0 c0 51 7b bc 48 ed 08 bf 2e d3 ab 3f ea 0e 93 bf
       -0.015339315 -0.5348706 1.3423822 -1.1488926
0002d0 5a 65 52 be 35 a6 6e 3e fb 82 1e 3f 85 54 b6 3a
       -0.20546475 0.2330559 0.6191861 0.0013910687
0002e0 78 f5 f7 be a4 f5 7f 3f 2e 05 1c be a4 90 b4 b9
       -0.48429465 0.9998419 -0.15236351 -0.0003444004
0002f0 aa 45 58 bf 5a fc 3c 3f 96 c8 f6 be dc 27 c8 be
       -0.844813 0.7382256 -0.4819991 -0.3909291
000300 0a 99 58 be 4f 68 bf bd ab 0f 9e 3f 22 22 34 be
       -0.2115213 -0.09346067 1.2348531 -0.17591146
000310 2f d5 ca be 8a 6b af 3f 2d 4d 92 bb 2d a5 d2 3d
       -0.3961577 1.3704693 -0.0044647665 0.10285411
000320 ce d3 75 bc db 6d a1 3b f5 09 4f 3f 04 98 81 3f
       -0.015004111 0.004926426 0.8087457 1.0124516
000330 4d 79 6b 3e 70 66 c8 3e 07 65 ec bf 1d 63 6e 3e
       0.22995491 0.39140654 -1.8468331 0.23279996
000340 4f f8 ac 3d e9 0a 07 bf d4 00 6c 3f 0c 7b b6 be
       0.084457986 -0.5275102 0.92188764 -0.35640752
000350 61 85 60 3e ff 65 0f 3e 99 e9 9c 3f a4 83 af be
       0.2192588 0.14003752 1.2258788 -0.3428012
000360 35 3b 0c 3e 80 51 e7 3b 0b b2 6c bf 96 90 d9 bb
       0.1369446 0.007059276 -0.9245917 -0.0066395504
000370 1b bd 1c bc b3 d7 1a 3d a3 c7 dd 3d 76 3b 54 3c
       -0.009566571 0.037803363 0.10829093 0.01295363
000380 13 73 fa be 9c 73 3a 3f e2 10 81 be c3 39 bb 3d
       -0.4891592 0.72832656 -0.25208193 0.091418765
000390 2c 55 57 bf 07 fe 6e bd a5 f5 bf 3c e2 93 21 3f
       -0.84114337 -0.058347728 0.023432562 0.63116276
0003a0 d9 40 10 3c 8f 65 82 3f 78 cb 15 be 25 44 11 3e
       0.008804523 1.0187243 -0.14628398 0.14186151
0003b0 a5 71 d0 3d 71 34 3d be 63 f4 16 3e 56 cd 1a 3f
       0.10177926 -0.18477036 0.14741664 0.6046957
0003c0 4e 5e 17 be 9a 8b 23 bd b9 85 0d bc bb af 02 bd
       -0.14782068 -0.039928056 -0.008637839 -0.03190587
0003d0 df 93 44 be 67 b8 c7 3b 10 62 bb be c9 b4 71 bc
       -0.19197033 0.0060949805 -0.36598253 -0.014752575
0003e0 8c 68 51 bb 2b 3c 58 bf e9 1f 77 3b 67 2a c5 3e
       -0.0031953184 -0.8446681 0.003770823 0.38508913
0003f0 df ff 13 40 58 04 ec be 02 48 9b be 46 03 e0 bd
       2.3124921 -0.46097064 -0.30328375 -0.10938124

MLP.2.bias f4 [100]
000000 dd 46 48 be 6f a6 73 3d 3a 25 22 3e 2c fa c2 3d
       -0.19558282 0.059484895 0.15834513 0.09520373
000010 d2 aa 11 bc 31 e5 98 bc 86 77 56 3b 11 4b 2b be
       -0.008890824 -0.018663974 0.003272505 -0.16727854
000020 0c 4f d0 be 1d 45 83 bc 2a 2f 5f be 61 a6 20 be
       -0.40685308 -0.016024167 -0.21795335 -0.15688469
000030 f3 1d 1d 3e 33 b2 a9 bd d1 82 29 be 07 d9 8f be
       0.15343456 -0.08285942 -0.16553809 -0.28095266
000040 4e c1 73 3d 58 21 57 3e 5a 16 8a be c0 4b 7a 3e
       0.05951052 0.21008813 -0.26970178 0.24442959
000050 17 da 40 3e f5 c9 46 3e fc 42 36 be 7c ac 08 3e
       0.18833195 0.19412978 -0.1779899 0.13347048
000060 29 69 30 3e a1 05 fe be 02 bd 14 3e 96 26 9e 3d
       0.17227615 -0.4961367 0.14525226 0.077222034
000070 36 3b 81 be 8e a6 0e be 73 89 a4 be 99 54 f8 bc
       -0.25240487 -0.13930723 -0.32136115 -0.030313777
000080 ad 1c 0c 3d c5 57 98 be 44 07 85 3d b0 8b a5 3c
       0.034207035 -0.29754463 0.064955264 0.02020821
000090 bb 9a 06 be 3d e6 70 be e2 79 bb be f8 a1 ef bd
       -0.13144962 -0.23525329 -0.36616427 -0.11700815
0000a0 3f 1a 70 3e f4 69 b5 3d 26 2f d8 bd 5f 60 dd bd
       0.23447512 0.088580996 -0.10555868 -0.10809397
0000b0 52 a0 fd 3d 44 0a 0a 3e c1 4a 9a ba 38 c4 89 bd
       0.12384094 0.13480479 -0.0011771546 -0.06726879
0000c0 46 ba 0a 3e 5b ba 32 be 79 27 10 3d ed 88 88 bd
       0.1354762 -0.17453901 0.035193894 -0.066667415
0000d0 f5 fe 90 3d c2 99 89 3c 54 6a a6 bd 53 50 3f 3e
       0.07079879 0.01679695 -0.08125749 0.18682985
0000e0 2a 80 c8 be 3e 01 c0 be 2c 09 ce 3d 36 4b 8b 3c
       -0.3916028 -0.37500948 0.10060343 0.017003637
0000f0 3d ae 36 be ef 5d 8d 3e 88 ac d7 bd be 3f 73 bc
       -0.17839904 0.27610728 -0.105309546 -0.01484674
000100 ab d4 0a 3d 3c b4 9d 3d ce 8a d2 ba 59 8c d1 ba
       0.033894222 0.077003926 -0.0016063096 -0.0015987261
000110 67 8b 05 3d c5 2f 9c be 0d 6a 61 3e a6 78 1d 3d
       0.032603648 -0.30505195 0.22013111 0.038445137
000120 63 d5 30 3e d2 d0 19 3e 8c a2 13 3c 9e d1 29 3e
       0.172689 0.15021065 0.009010922 0.16583869
000130 92 32 b2 bc b3 44 be 3d cc 99 56 3e 04 6c a9 bd
       -0.02175263 0.09290447 0.20957106 -0.082725555
000140 35 5b e2 3d 00 e7 7f 3c 1b d8 90 be 66 3d 82 be
       0.110525526 0.01561904 -0.28289875 -0.25437468
000150 04 53 83 3c 8a 37 91 3e 79 7a 17 be 01 81 20 3d
       0.016030796 0.28362685 -0.14792813 0.039185528
000160 1a 99 8c be f5 88 3e be f8 b4 6f 3d 4b b1 4f bf
       -0.27460557 -0.18606932 0.058522195 -0.811299
000170 ad 0c 9e bd f8 82 0b 3d 58 fd 8b bd 8f 67 aa bd
       -0.077172615 0.03406045 -0.06835431 -0.083205335
000180 06 1e 9a bd 91 79 35 bf b0 db 00 bd 69 76 2b bd
       -0.07525258 -0.7088862 -0.03145951 -0.04186097

MLP.4.weight f4 [50, 100]
000000 97 d1 62 3f 96 78 21 3f 95 6d ac be 27 04 af 3e
       0.8860106 0.63074625 -0.33677354 0.34182855
000010 b0 e2 36 3f 40 01 21 bf 45 22 5a 3f 59 40 2f be
       0.7143965 -0.6289253 0.8520854 -0.1711439
000020 8f f6 0e 3d 0e e3 63 bf 62 1f 80 be 87 2f 8f bf
       0.034903105 -0.8901833 -0.25023943 -1.1186379
000030 3d 6c b2 3e ae 15 57 3f a4 90 94 be 6b a2 c0 bc
       0.34848204 0.84017456 -0.29016602 -0.023514947
000040 eb 5a a9 3e fb dc f2 3c c7 73 10 bd ac d4 14 bd
       0.33077177 0.029646387 -0.035266664 -0.036335632
000050 ee 8e 8d be 13 b7 5c 3f 62 93 9a bf c8 61 48 3e
       -0.2764811 0.8621685 -1.2076228 0.1956855
000060 00 8f 45 3e 19 49 7c 3e a1 f7 a2 3d 8a 94 81 bf
       0.19292831 0.2463726 0.07957388 -1.0123456
000070 6c 0d 31 c0 a9 e7 7f be d8 09 9b 3f 3c 09 d0 3d
       -2.7664442 -0.24990715 1.2112379 0.10158011
000080 9b fc 2c 3e 47 1f 83 be 80 69 be 3e 56 82 a0 be
       0.16893236 -0.256098 0.37189865 -0.31349438
000090 2c d4 5d bf 5c 03 8f bf 9f 78 60 be cf ef 69 3e
       -0.86651874 -1.11729 -0.21921013 0.22845386
0000a0 06 e5 66 40 ce f0 33 be f4 d0 52 be 0e 65 c0 3e
       3.6077285 -0.17572328 -0.20587522 0.375771
0000b0 04 6e 71 bc 9e d3 c7 be c6 85 91 3e d0 c4 ad bd
       -0.014735702 -0.3902864 0.28422374 -0.08484805
0000c0 2a 09 04 3f 07 23 b0 be ba fc 3f bf ae 66 c7 3d
       0.51576483 -0.34401724 -0.74995005 0.097363815
0000d0 71 f2 05 bf 9b 0f 85 3e 23 48 7b bd 31 fb cf bc
       -0.5232306 0.2598847 -0.06134809 -0.025388332
0000e0 90 1e a9 bf d4 4e a4 3e 95 d9 82 be a8 c8 5b be
       -1.3212452 0.3209139 -0.25556627 -0.21463263
0000f0 5e 79 8f 3e f3 e8 fd bd 8e c3 46 3e eb e0 d4 bf
       0.28022283 -0.12397947 0.19410536 -1.663114
000100 f2 9b a0 bf 1c d7 8a bf 3c c4 ee be a8 cb e0 be
       -1.2547591 -1.0846896 -0.4663409 -0.43905377
000110 b7 81 21 3e 9f 7d 57 bf 24 12 67 3f ab 58 56 3c
       0.15772139 -0.8417606 0.90262055 0.0130826635
000120 76 a2 a0 3e 71 c1 a8 be 15 54 af 3e b2 aa 2e 40
       0.31373948 -0.32960084 0.34243837 2.7291684
000130 c7 d6 ad be de f0 7e bf 42 1a 1e be f7 78 67 bf
       -0.33952925 -0.99586284 -0.15439704 -0.9041895
000140 d6 41 b6 bf bd c0 c6 be 5a fb 6b 3e fd 31 0a 3e
       -1.4238842 -0.38818923 0.23045102 0.13495632
000150 35 3e c6 bc 20 64 70 bf ef 9d 31 c0 ec 3f cf be
       -0.024199584 -0.9390278 -2.7752645 -0.40478456
000160 4c 33 84 bc 35 27 11 3f 6a 59 85 3d a2 ab 78 3c
       -0.016137742 0.5670045 0.06511195 0.015177639
000170 51 98 f1 3d 55 27 b0 3e a7 4f 16 bf 3b c8 08 3f
       0.1179663 0.34405008 -0.5871529 0.5343053
000180 6c 8e 59 3c 0e 4d 40 3e 14 dd 15 3f 33 a5 03 3d
       0.013278585 0.18779394 0.58540463 0.032139968
000190 41 ff 05 3d a3 c2 81 3f 4d 82 99 be 1e 88 82 3d
       0.032714132 1.0137523 -0.29982224 0.063736185
0001a0 87 9b d1 3d d8 e3 20 3d 34 16 83 bd 7b 53 0c be
       0.102347426 0.03927979 -0.06400719 -0.1370372
0001b0 46 26 70 3f 89 4d 85 3d 5a 9f 71 bd 6d a1 55 bd
       0.938084 0.06508929 -0.05898986 -0.0521559
0001c0 77 39 46 bd 1c f9 00 be 78 93 4a bd 91 ea 55 3f
       -0.048394646 -0.12595028 -0.049457043 0.83561045
0001d0 b0 39 3c be 02 55 14 3d d6 2f 1c be 3c 36 1c 3e
       -0.18381381 0.036213882 -0.15252623 0.15255064
0001e0 88 b1 8d bf d8 f6 6c 3e a3 54 cd be cf 7a ed 3c
       -1.1069803 0.23141038 -0.40103635 0.028989224
0001f0 a6 9b d5 3e ae 31 29 40 3d 41 2c 3e 66 34 20 bd
       0.41720313 2.6436572 0.16821761 -0.03911247
000200 15 36 2e be 65 29 21 3f 3f ef 54 3e 6d de c0 3c
       -0.17012818 0.6295379 0.2079439 0.02354356
000210 be ca 9c be 07 54 cb 3e 72 88 a3 be 76 94 d5 bd
       -0.3062343 0.39712545 -0.31940037 -0.10428707
000220 ba 21 fc bd 9a ad 15 3d 3d 6e 1a 3f 19 64 08 be
       -0.1231112 0.036542512 0.6032446 -0.13319434
000230 ad 0b 4a 3e 26 49 28 bf df b0 51 bd 8a bf ba 3d
       0.19731016 -0.65736616 -0.051194068 0.091185644
000240 a9 8f c1 3e dc 73 92 3c 83 b2 ee bd fc f8 ca bd
       0.37804917 0.017877512 -0.11655142 -0.09910771
000250 b1 db b6 be 03 30 53 3f c1 b4 0e 3e 42 f1 54 be
       -0.35714486 0.82495135 0.1393614 -0.20795158
000260 71 b4 01 be bc 46 8d 3e a7 a1 11 be 44 f5 0b 3e
       -0.12666489 0.2759303 -0.14221822 0.1366778
000270 2b 42 20 3e 6e 86 f8 3c ea 77 ce 3d 6a 65 85 be
       0.15650241 0.030337539 0.100814655 -0.26053935
000280 85 9f c9 3e db 26 a8 3f 05 d0 63 bd bf 36 89 3c
       0.39379516 1.3136858 -0.055618305 0.016749738
000290 f8 0f f2 be b9 a2 2f 3f 6b f5 40 3e 47 2f 13 be
       -0.47277808 0.6860767 0.1884362 -0.14373504
0002a0 50 3c 47 bd d9 ad 86 3e 82 aa 34 3e 2c c5 1e be
       -0.048641503 0.2630451 0.17643169 -0.15504903
0002b0 36 77 9e bd 68 6b f0 3e ed dc 56 be 86 52 e4 3d
       -0.077375814 0.46956944 -0.20982714 0.111485526
0002c0 55 01 e1 bc 04 03 ea bb 98 10 89 3f cd b3 0d be
       -0.027466455 -0.007141473 1.0708189 -0.1383812
0002d0 a7 3e 14 3e 2c f8 ad 3d 60 85 1c 3e 8c fb e6 3d
       0.14477025 0.08494601 0.15285254 0.112784475
0002e0 46 49 28 be c5 32 37 3e ad 4e 5d 3d 3f 3e 51 bc
       -0.16434202 0.17890461 0.05403011 -0.012771188
0002f0 9d c9 49 be 79 6d 42 be ec 11 2d 3f 7d 54 8c 3f
       -0.19705816 -0.18987073 0.6760547 1.0963284
000300 c9 00 3e bd 3b e0 8f 3e c7 74 03 be c1 18 d2 3e
       -0.046387468 0.28100762 -0.12837516 0.4103451
000310 e2 9d f7 bd 07 5a a0 3f 76 5a 93 be 05 a2 25 be
       -0.12090661 1.2527474 -0.28779954 -0.16175087
000320 80 7f e8 3e df 71 8b be d8 36 33 bf 8f f5 08 3f
       0.45409775 -0.27235314 -0.7000556 0.5349969
000330 db 7f a6 3f 0c ef d9 bf 14 0a 36 be 43 79 35 be
       1.3007768 -1.7026076 -0.17777282 -0.17722039
000340 a3 a9 1a be 93 09 10 3f d4 5d 04 3f 9a ae 14 3f
       -0.15103774 0.5626461 0.5170567 0.5807892
000350 01 84 8e 3c e8 0a 8c 3e 7d 8b 6a 3e 97 60 1d 3f
       0.017396929 0.2735207 0.22904773 0.6147551
000360 4f 2b 20 3f 88 6b 8f be 7a 5f 25 3d 12 bc 3f 3f
       0.62566084 -0.28011727 0.040374257 0.7489635
000370 f8 e9 9f bf 90 29 c4 3d e8 cf 9a bf db 1c d7 3c
       -1.2493277 0.0957824 -1.2094698 0.026258877
000380 8a dc c4 be 82 8c 84 bf c3 70 d3 bd cc c9 a8 3f
       -0.38449508 -1.035538 -0.10324242 1.3186584
000390 55 fc 62 be 8c 96 47 3f 67 47 6e bf 60 41 16 bd
       -0.2216657 0.7796409 -0.930777 -0.03668344
0003a0 12 66 88 3d 7a f2 3b c0 98 1d ec 3f 66 10 ef bf
       0.06660093 -2.9366746 1.8446531 -1.867688
0003b0 cd 9a 11 3e 51 54 2d bf c2 9e e6 be 51 c0 80 3f
       0.14219208 -0.6770678 -0.45042998 1.005869
0003c0 64 70 b2 bd 01 5b 3f 3f 14 77 bb 3e 33 53 17 3e
       -0.08712843 0.74748236 0.36614287 0.14777832
0003d0 b1 b1 66 3f ef 66 7e bc f5 62 a3 3f b2 ff 58 3e
       0.90114886 -0.015527471 1.2764574 0.2119129
0003e0 ec 25 e2 be dc c4 df be 00 75 7a bf 76 4d 82 be
       -0.44169557 -0.4370488 -0.9783478 -0.25449723
0003f0 5f 43 2d 3f 96 98 f0 3e 46 d8 bf be c7 14 8e bf
       0.67680925 0.46991414 -0.3746969 -1.1100091

MLP.4.bias f4 [50]
000000 4c 5d 8e 3c f3 c4 d3 be 32 8b 93 be 28 b4 1b be
       0.017378472 -0.41361198 -0.28817135 -0.15205443
000010 f3 ba b1 be 02 68 ad be e5 75 a0 be d5 60 58 be
       -0.34712943 -0.33868414 -0.31339946 -0.21130688
000020 fa 98 1b 3e 0c 62 f0 be 76 85 03 3e 21 8b 11 be
       0.15195075 -0.46949804 0.1284388 -0.1421323
000030 74 1c 09 bf 9d 38 4c bd fe 7f 17 be a7 67 2a be
       -0.5355904 -0.049858678 -0.14794919 -0.16641103
000040 88 00 28 bd f4 1d ea bd 31 ec 46 3e 99 3b 8e 3d
       -0.04101613 -0.11431494 0.19426037 0.06944961
000050 74 22 0b 3e 87 07 22 be 3d 78 82 be 71 81 97 bd
       0.13587362 -0.15823184 -0.2548236 -0.07397736
000060 b6 ae 9b be 6d 7f 1a 3e 4e 43 cf bd e5 a5 c8 be
       -0.3040673 0.15087672 -0.10120259 -0.39189067
000070 23 56 46 bd 43 4b 16 bd 22 26 9a 3d 70 f6 9b 3e
       -0.04842199 -0.03669287 0.075268045 0.30461454
000080 65 85 22 3e 50 6f cf be ca 82 05 3f df 4a 05 bf
       0.15871198 -0.40514612 0.52152693 -0.5206737
000090 54 28 09 bf 0c d6 58 bd 6b 0d a9 bd d1 5a c3 3d
       -0.5357716 -0.052938506 -0.082545124 0.09538806
0000a0 d5 2a 2a 3e 6a 1e 15 3e a3 ba 80 be c8 aa 6e 3d
       0.16617902 0.14562383 -0.25142393 0.05826834
0000b0 6e 8a 1d 3e 82 c9 e0 bd 6b 6a 01 3d 16 73 f8 3d
       0.15384838 -0.109759346 0.03159563 0.12131326
0000c0 76 1f 44 be a2 38 c6 bd
       -0.19152626 -0.096787706

MLP.6.weight f4 [25, 50]
000000 be da 2b be 86 5d 1b be f4 d6 a1 3d 38 c3 63 3d
       -0.16782662 -0.15172395 0.07902327 0.055606097
000010 5d 79 0e be ec e7 84 bc bb 58 00 3d 51 ea 95 be
       -0.13913484 -0.01622387 0.03133462 -0.29280332
000020 53 2c ef be 5e ab 83 3e ef f0 d6 3b 80 d4 7d 3d
       -0.46713504 0.2571668 0.0065594832 0.061970234
000030 3b eb a9 3e 29 a9 35 be 0e 18 1a bd 03 fe 27 3e
       0.3318728 -0.1774031 -0.037620597 0.16405492
000040 2c bb 00 3e 07 ea 84 3c 98 6f 70 3d 0e a7 08 bf
       0.125714 0.016224874 0.058700174 -0.53379905
000050 0f fa 11 be 4e 8e 4e bd 3b 43 b1 bd 1d 0f e1 ba
       -0.14255546 -0.05042868 -0.08655401 -0.0017170642
000060 67 26 18 be a0 2c be bd a0 af 27 3d 01 b8 fd bc
       -0.148584 -0.09285855 0.040938973 -0.030971529
000070 77 ea bc be fd 53 bd 3d 0c 51 59 bd c4 fd e9 be
       -0.36897632 0.09244535 -0.053055808 -0.4570142
000080 20 40 1d bf b2 d9 8c be 87 2f f3 bc 5b cd 74 3d
       -0.6142597 -0.27509838 -0.029685749 0.059766155
000090 a9 4a c7 3d 08 1b db 3d 5f cc 10 3f 05 dd 8f bd
       0.09731037 0.10698515 0.56561846 -0.07024578
0000a0 b2 8c 7e be a7 52 46 be 44 68 76 3e 9c 9c 56 3d
       -0.24858359 -0.19367467 0.24063212 0.052395448
0000b0 63 f2 44 bf 4f f1 ac 3e 47 a7 12 bd b6 a0 56 be
       -0.7693235 0.33777854 -0.03580406 -0.20959744
0000c0 61 5d b0 bd dc 9e f2 3d f6 0d 20 3f db 91 c8 bd
       -0.086115606 0.11846706 0.625213 -0.09793445
0000d0 d7 80 bc 3e ee da 14 3f b4 52 81 be 13 63 83 3f
       0.36817047 0.5814656 -0.2525841 1.026461
0000e0 b6 4e e5 3e 4b 3e ad bd 9c 2b e5 bd dd a0 cd 3e
       0.44786614 -0.08459147 -0.111899585 0.4016179
0000f0 ab 8f 94 ba e1 1a 42 3e a4 95 db 3e e3 20 67 40
       -0.001133432 0.18955566 0.42887604 3.6113822
000100 c4 22 17 3f 5a a7 a6 be e1 f5 21 3e fa 4c ba bd
       0.59037423 -0.32549554 0.15816452 -0.09096713
000110 f3 aa dc 3e cd 36 37 bc 1d cb 43 bf 95 d4 cc 3e
       0.43099174 -0.011182499 -0.764818 0.40005937
000120 33 49 0e bf 96 cc ba 3e 0c cc c2 be 9c 87 54 3f
       -0.55580443 0.36484212 -0.380463 0.83019423
000130 84 57 b2 bd b7 4c e3 3e 45 fd c6 be 52 0d 37 3e
       -0.087080985 0.44394466 -0.38865104 0.17876175
000140 93 ac 4f bd 08 52 89 3d 1a e3 ec bc 7e cf d2 3f
       -0.05070169 0.06705099 -0.028916884 1.6469572
000150 a7 28 9a 3f 03 88 4f 3e 9d a2 89 bf 06 84 12 bf
       1.2043656 0.20266728 -1.0752751 -0.572327
000160 7c d2 ac 3f ed ce 43 bd fd 42 6c 3d 86 fa 8b 40
       1.3501735 -0.04780476 0.057681073 4.3743315
000170 6e d9 9b be 10 66 94 3e 74 1f 0f bd 7b 59 b1 3c
       -0.30439323 0.28984118 -0.034942105 0.021649113
000180 e3 b6 c8 be 59 b3 c7 3e a9 7e d6 3e e3 2e 19 3f
       -0.39202031 0.3900402 0.4189351 0.5983717
000190 30 9d 85 3e 39 a1 75 bf 64 b1 dd be dd c8 a2 be
       0.26096487 -0.9594913 -0.432994 -0.31793872
0001a0 0b a3 69 bf ad 79 62 3f 16 36 43 be 10 ec 15 3f
       -0.9126441 0.8846691 -0.19063601 0.5856333
0001b0 79 b2 20 be 1b d2 85 bf 38 9d 58 3e 2c 04 80 3e
       -0.15693082 -1.0454744 0.21153724 0.25003183
0001c0 c8 bb 37 bf a6 5a ed be 75 a4 9d 3d 06 9e 18 be
       -0.71770906 -0.46358222 0.07697383 -0.14904031
0001d0 d4 ae ab be 8c 85 ae 3c 71 3c 65 be e9 e6 ef 3d
       -0.3353182 0.021303914 -0.22386338 0.117139645
0001e0 ee 2d b5 3e 9e 0e b9 bd ae 23 b2 3e 77 66 1a be
       0.35386604 -0.09035991 0.34792846 -0.1507815
0001f0 5a c8 63 3f 60 76 74 bf 9b 1b d1 3e 19 47 a4 3c
       0.8897759 -0.95493126 0.40841374 0.020053433
000200 88 68 0d 3e a2 fe af 3d 74 d4 c8 be 21 94 a8 be
       0.13809407 0.08593489 -0.3922459 -0.32925513
000210 de 35 e1 3b 09 c9 87 be f0 bc 10 3e 9f 26 30 be
       0.0068728765 -0.26520565 0.14134574 -0.17202233
000220 51 ea 0a 3f ef 45 0d be 73 d0 c8 bc f8 a1 4d bd
       0.5426379 -0.13796209 -0.024513459 -0.050203294
000230 92 8b 8e be 1a 8c c3 be 53 8e 5c be 38 71 06 3f
       -0.2784086 -0.38192827 -0.21538667 0.5251651
000240 79 cc bb 3d 65 de e6 bd d5 2f d1 3e b6 aa 9a 3f
       0.091698594 -0.11272887 0.40856805 1.2083347
000250 e4 98 2c 3d 0c 0a be be 13 a7 1e be d0 16 55 be
       0.042137995 -0.3711704 -0.15493421 -0.20809484
000260 09 9d e3 bd e6 f5 65 3e 63 82 8f bf bf 20 87 3d
       -0.111139365 0.22457084 -1.1211666 0.06598043
000270 15 e0 8f bb 07 c1 ce be ff 13 00 3e a2 d8 2b bf
       -0.0043907263 -0.40381643 0.12507628 -0.6712743
000280 2c 66 a2 3e e7 f9 80 be 07 93 23 3d b1 df f8 bc
       0.31718576 -0.2519066 0.039935138 -0.030380102
000290 c8 1a a4 bb 32 72 9f 3d d8 14 ee ba 71 47 ea be
       -0.0050080754 0.07785453 -0.0018164171 -0.4575763
0002a0 21 45 32 3e 79 e1 b9 bc bc 21 d2 3e 4b 66 8f bd
       0.17409183 -0.022690522 0.41041362 -0.07001933
0002b0 5a 8d 25 be 86 d7 93 bd fe 69 0f be cc ac 40 be
       -0.16167203 -0.07218842 -0.14005277 -0.18815917
0002c0 bf ce 51 be 03 62 41 3f 8c 34 80 3e c4 41 04 3c
       -0.20489024 0.7554018 0.2504009 0.00807232
0002d0 71 16 3a 3e 31 14 aa 3e fb 79 cd bd 26 40 59 bc
       0.18172623 0.3321853 -0.100330316 -0.013259923
0002e0 44 bb 54 be 1b d2 61 bd 90 97 3c bd 8d 30 d6 bc
       -0.20774561 -0.055132013 -0.04604298 -0.026146198
0002f0 77 36 91 3c 51 af 63 be 0c 6a ae 3e aa 4a d8 3e
       0.017726166 -0.22234847 0.34065282 0.42244464
000300 c4 8d 08 3e 03 78 de bd db 1a a2 be 7b 28 e8 bd
       0.1333533 -0.10862734 -0.31661114 -0.11335846
000310 62 30 0a be d9 66 55 bc 12 8b 09 be 20 42 f2 3d
       -0.13495019 -0.013025009 -0.13431957 0.118290186
000320 21 ec 04 be 5e ac ba be e4 8f 8a bd c7 c2 07 3d
       -0.12980701 -0.3645963 -0.06765726 0.03314474
000330 98 86 6d be ab ea 69 bd 93 66 9c bd ee 23 02 be
       -0.23195875 -0.057108562 -0.07636752 -0.12709019
000340 72 b7 a9 be 5b a2 7b bd e1 2e 8a bd 9f e6 17 3e
       -0.3314777 -0.06143413 -0.06747223 0.14834069
000350 4a a3 97 3e e6 16 0c be d3 c9 84 bd 1a 0b c8 3d
       0.29616767 -0.1368061 -0.064838074 0.097677425
000360 36 58 09 3e 3c ed 17 bd c1 b0 21 3d 83 17 14 bf
       0.13412556 -0.03709148 0.039475206 -0.57848376
000370 ac b1 53 be 9a 2e 84 3e 7b 2e ec bc ec 7c ee bb
       -0.20673245 0.25816804 -0.028830757 -0.0072780754
000380 bc 26 7c be 02 b6 f7 bd 21 db 7a 3e 1f d4 58 3d
       -0.24624151 -0.12095262 0.24497654 0.05293667
000390 10 a0 bb be 6d f3 69 3d ab d2 d7 bc 80 5e f1 be
       -0.36645555 0.057116915 -0.026345572 -0.4714241
0003a0 c3 ce cc be c9 fe a6 be cf 14 01 bd 63 18 8d 3e
       -0.40001497 -0.3261626 -0.031513985 0.27557668
0003b0 8b 36 5c be 9a e3 35 3e ab 34 0b 3f de 69 c2 bd
       -0.21505181 0.17762604 0.5437724 -0.09492849
0003c0 98 0d 37 be 0c 97 40 be 7c 8f 58 3e ad 5f 1e 3d
       -0.1787628 -0.1880762 0.21148485 0.038665462
0003d0 67 6d 2b bf 12 56 a7 3e e2 38 d3 bd 78 fa 15 3c
       -0.6696381 0.32682854 -0.10313584 0.009153955
0003e0 d2 50 0b bd 2a 4e 60 3d e8 33 c5 be 4a 1a 94 3f
       -0.034012623 0.054762043 -0.38516164 1.1570523
0003f0 43 b7 dd 3e 1b 5a 25 3e 83 e5 09 3d 2b e3 30 be
       0.4330388 0.16147654 0.033666145 -0.17274158

MLP.6.bias f4 [25]
000000 3a a6 4a 3e fc b4 0b 3f 2a ed 1b 3d 21 3f c0 bd
       0.19789973 0.54573035 0.038067974 -0.09387041
000010 40 fd 47 3e 7f 61 93 be 3c 51 f5 bd 0d 81 f6 bc
       0.19530201 -0.2878532 -0.11978385 -0.030090833
000020 b1 30 39 be 36 b8 16 3e 1b 42 bc bc 97 c5 98 3d
       -0.1808498 0.14718708 -0.02298074 0.07459562
000030 d7 0c 0e 3e 49 79 aa be d8 5f 46 be 72 dd 0a bf
       0.13872086 -0.33295658 -0.19372499 -0.5424415
000040 98 aa 7b 3f 27 4e 09 bf 7a e2 bf 3d bb 67 0d 3d
       0.9830718 -0.53634876 0.09369369 0.034522753
000050 e5 95 58 3d 16 4e 68 3d da 04 de be 42 97 e7 bd
       0.052877326 0.056715094 -0.43363076 -0.11308147
000060 bb bf c5 be
       -0.3862284

MLP.8.weight f4 [10, 25]
000000 d0 f0 85 3e 87 05 f3 bd 82 50 88 3c 52 4d 72 bd
       0.26160288 -0.11866289 0.016639952 -0.05915577
000010 e3 c4 62 3e c4 e3 ea 3c ca c5 8a 3d 4b af 91 3d
       0.22145419 0.02867306 0.067760065 0.071135126
000020 6c 9e c0 bd f3 86 b3 be 7f f8 a6 be 64 9a 8b 3d
       -0.094052166 -0.35063896 -0.32611462 0.06816557
000030 c0 b5 56 3d 01 16 7f 3d e9 13 03 bd da 8b d6 3d
       0.052419424 0.062276844 -0.03200141 0.10475893
000040 c9 42 64 be 8b 5e 7a 3e 28 31 da 3c 2f 30 5b 3e
       -0.22291102 0.24450128 0.026634768 0.214051
000050 7f f4 01 be 78 b4 f2 3d d7 7e b1 3d ee e8 00 bd
       -0.12690924 0.11850828 0.08666771 -0.03147214
000060 e2 8d 68 3d 98 75 e0 bd 8b 4c 4c be 00 f7 b3 3c
       0.056775935 -0.10959929 -0.19951074 0.021968365
000070 8f 05 f3 bb fe 2c be 3d 75 70 44 be 5e 30 9b be
       -0.007416434 0.09285925 -0.19183524 -0.3031034
000080 45 39 36 3d cb d8 a4 bd b5 ac 10 be 3b 27 8f be
       0.04448821 -0.080491625 -0.14128383 -0.27959618
000090 c1 61 43 be fe d2 9f 3e 3f 1c 92 be c6 80 44 be
       -0.19080259 0.31215662 -0.28537175 -0.19189748
0000a0 ef b6 48 3f 93 83 a9 be af 8c 04 3f 2c 02 66 be
       0.78404135 -0.33108196 0.51777166 -0.22461766
0000b0 9a 00 16 bd 81 a7 f7 bc 9f 21 10 3e 86 9e a7 be
       -0.036621667 -0.03023124 0.14075325 -0.3273813
0000c0 6b e4 52 be bc 95 08 3e 5d 0a 9b bc f7 bc 8b 3d
       -0.20594947 0.13338369 -0.01892584 0.068231516
0000d0 54 a7 3a bc f4 9b 42 bc 51 a3 18 bb 9f 62 15 be
       -0.011392433 -0.011878002 -0.0023290704 -0.14588402
0000e0 05 c0 b6 3c c6 be 91 3d 3c 5d 42 bd 39 dc 44 bd
       0.022308359 0.07116465 -0.047452196 -0.048061583
0000f0 06 ba f4 bc 86 df 7d bd 96 bc 4e 3e 36 ce 46 bc
       -0.02987386 -0.061980747 0.20189127 -0.012134125
000100 ce 31 9f bd 3d 80 1d 3e 28 50 9e 3d 96 61 52 3d
       -0.07773171 0.1538095 0.07730132 0.051362596
000110 b3 eb cc 3b 60 d7 9a 3b 11 a2 6e 3d 49 2b 1f 3c
       0.0062536835 0.0047253817 0.058260027 0.00971491
000120 2d 6c 2c 3e b6 95 6f bd e5 c0 2a 3d 55 0e b8 bd
       0.16838141 -0.058492385 0.041687865 -0.089871086
000130 a1 55 3a 40 7e 2d dd bc 6b aa 4a 3d 66 33 93 3e
       2.9114764 -0.026999231 0.04947893 0.2875015
000140 e5 9e 13 3f 89 46 da be 9d 16 2b 3d 98 22 0b bd
       0.5766433 -0.4263194 0.041769613 -0.033968538
000150 15 eb a7 3d 96 cc b0 3d a9 fb e4 ba 3f 06 9a 3d
       0.08199135 0.08632772 -0.001747002 0.075207226
000160 7c 27 2b 3e f6 56 a9 be d5 0b c0 bd 74 1a a7 3f
       0.16714281 -0.33074158 -0.09377257 1.3054948
000170 98 10 c0 be 73 ac 21 3e 8b fa dd bd 9b 70 85 be
       -0.3751266 0.1578844 -0.10838803 -0.26062474
000180 02 61 58 be e8 6b 0e 3f 95 d3 0c 3e 0d 9a a0 bf
       -0.21130756 0.556334 0.13752587 -1.2547013
000190 70 81 5c bf 71 63 18 3e 25 20 54 3d b5 23 51 bd
       -0.86135006 0.14881684 0.051788468 -0.051059444
0001a0 c8 cc 79 bf b3 b1 49 be f2 07 e1 bd 4b 84 c3 bc
       -0.97578096 -0.19696693 -0.109878436 -0.023866793
0001b0 24 68 1d 3d 9f 3c 80 3d 67 de 0a 3d db 40 04 3d
       0.038429394 0.062615626 0.033903506 0.032288413
0001c0 55 20 89 bc ab 55 11 bc 97 71 1f 3d 89 8b 5a bd
       -0.01673905 -0.0088705225 0.038926687 -0.053355727
0001d0 47 50 11 3e c0 39 86 3c a7 da 13 bf a1 db 45 bf
       0.1419078 0.01638496 -0.5775551 -0.7728825
0001e0 6d a6 6f 3c 1e 31 91 3e 9d 5e 44 bd ab 47 77 3d
       0.014627081 0.28357786 -0.047941793 0.060371082
0001f0 22 76 09 bd 17 53 01 3d b1 78 54 3f c7 13 62 3e
       -0.033559926 0.03157338 0.8299666 0.22077857
000200 b5 a3 d8 3d 63 4e 95 bd 1d db 40 bd 3e ea ed 3d
       0.105781 -0.07290342 -0.047083963 0.11616944
000210 71 86 7c bf 37 e7 83 be 1b 7e 4f bf d4 65 06 bc
       -0.9864264 -0.2576234 -0.81051797 -0.008202989
000220 16 58 73 bf dc 59 05 bf f5 6f bc 3e e9 f6 0d 3d
       -0.95056283 -0.5209024 0.36804166 0.0346593
000230 e2 ef f9 be 47 62 59 3f 16 f2 44 be 10 4b 99 bd
       -0.4881583 0.84915584 -0.19232973 -0.0748502
000240 79 39 4a 3d 5b 00 f4 bd bc f3 5c be 58 dc 3f bd
       0.049371216 -0.1191413 -0.21577352 -0.046840996
000250 14 5d b4 be 44 6e fa 3d 16 33 80 bd 94 bf cb bd
       -0.35227263 0.12228063 -0.06259744 -0.0994865
000260 83 5e 59 bb cf 98 be bc 32 43 08 3c 1a a8 8d bd
       -0.0033167906 -0.023266224 0.008316802 -0.069168285
000270 44 20 d3 3d 94 f9 68 3d fc 53 29 be 94 d8 58 bd
       0.103088886 0.05687864 -0.16535944 -0.05294092
000280 5e 1e a6 3b 38 3c c6 bd 8d f8 37 be be 69 c5 bd
       0.005069538 -0.096794546 -0.17965908 -0.09639309
000290 48 2b 0c be 6c 8c 5a 3e 70 58 56 3b 46 4a 16 3e
       -0.13688385 0.21342629 0.0032706521 0.1467677
0002a0 9b 08 f9 3c 2c d0 08 bd c7 0c 11 bb c8 98 a5 3e
       0.030399611 -0.033401653 -0.002213286 0.32343125
0002b0 35 92 bf 3e 3e 0c b4 bd 92 65 fe bc ec 9c c2 ba
       0.37416235 -0.087913975 -0.031054292 -0.0014847792
0002c0 54 e6 63 3b 64 37 1d 3b be f8 4b 3b 56 6f 3a 3a
       0.0034774737 0.0023989314 0.0031123604 0.0007111927
0002d0 ae b9 f5 3a c6 6d 64 ba a9 15 18 ba 31 2d 69 b9
       0.0018747353 -0.0008713867 -0.00058015675 -0.00022237447
0002e0 1a c6 74 ba a7 b6 ca b9 0a 50 d4 3a cf 39 4b 3b
       -0.0009337381 -0.0003866453 0.001619817 0.0031009798
0002f0 5a fc 91 bb 20 64 47 3a c8 a5 19 bb 67 ba ab 3b
       -0.0044551315 0.00076061673 -0.002344476 0.0052407268
000300 63 a1 7d ba 45 37 89 3b f2 44 a1 ba 41 5c 24 ba
       -0.00096752326 0.004187497 -0.0012303872 -0.00062698504
000310 24 9b 73 ba fc c1 a9 3a 10 42 9a ba 73 56 e3 b9
       -0.0009292832 0.0012951489 -0.0011768956 -0.00043361224
000320 57 43 84 3d 22 09 19 3f fb 16 94 3d 5a ef 8a 3a
       0.064581566 0.5977956 0.07230946 0.0010599897
000330 22 55 1f 3e ef 99 18 be 0a 5c ae 3b 40 19 63 bd
       0.1555982 -0.14902471 0.0053210305 -0.055444002
000340 88 3b 7f bd fe db 8a 3d f9 7d 48 bb 8b 59 46 3d
       -0.062312633 0.067802414 -0.0030592664 0.04842524
000350 fe 94 be 3d f1 fd 35 3e 7b ad c0 3d 08 af 8b 3e
       0.09305762 0.17772652 0.09408089 0.27281976
000360 71 42 01 3f 5e 44 c6 3d 8e cd c1 bc 4d 85 26 be
       0.50492007 0.09681009 -0.023657586 -0.16261788
000370 02 61 45 bf bf 8a 40 be c2 4d e2 3d ab 09 7a bd
       -0.7710115 -0.18802927 0.110499874 -0.061044376
000380 bf 53 7d 3f a5 23 64 3e db 39 f3 3f ae cd 68 be
       0.9895591 0.22279222 1.9002031 -0.2273471
000390 75 06 1e 3e 06 52 a9 3d 57 9a 2a 3f 3c a4 df be
       0.1543215 0.08267598 0.66641754 -0.43679988
0003a0 bb 4c c0 3d 30 b5 a9 3e 62 af 3d be e1 bc a8 bd
       0.09389635 0.33146048 -0.18523934 -0.08239151
0003b0 10 b2 8e bd f5 31 f0 3e bd 89 20 3f 57 22 39 bd
       -0.069675565 0.46913114 0.6271017 -0.045198765
0003c0 b9 03 38 be 06 28 2c 3f d3 82 00 bf 2b b3 eb 3b
       -0.1797017 0.6724857 -0.5019962 0.0071929893
0003d0 19 7b 81 be 8e 94 55 be 31 2d a4 3d 35 55 31 3d
       -0.2528923 -0.2085745 0.08016432 0.04329415
0003e0 0f 09 d0 3e 9d 8c 06 3c
       0.4063191 0.008212236

MLP.8.bias f4 [10]
000000 85 61 bd 3d 70 dc 59 3d 12 0a 44 bd 19 28 44 3c
       0.09247116 0.05318874 -0.047861166 0.011972451
000010 45 9d 0e 3e 72 f3 ea bd a8 ab 53 3d 7c af ee ba
       0.13927181 -0.11472215 0.051677376 -0.0018210257
000020 61 81 d7 3b 32 9d 8e 3e
       0.0065767025 0.27854306

MLP.10.weight f4 [1, 10]
000000 5f f8 28 be 45 5e 9a 3c 7a c5 c7 bc df 4d ce bd
       -0.16500996 0.01884378 -0.024386156 -0.100734465
000010 07 f5 67 3e 81 b6 20 bd 1f 4f 88 3c f2 0a c0 37
       0.22652064 -0.03923655 0.01663929 2.289328e-05
000020 2a a4 1c bd a1 60 1d bd
       -0.038242497 -0.03842223
